codes/c_GCN_NPEC/agentHOF/VRP20_best0/classification_decoder.pth (torch, 529793 bytes, 5 tensors)

MLP.0.weight f4 [256, 256]
00000000: cd64 f0bd c85b 3c3e 3730 973c 19f4 d13b
00000010: b4ca 023c e3f4 fa3d 4966 15be acb1 943c
00000020: d9f9 1d3c cbbb 17be 605a db3d 3661 19bc
00000030: 5fdb 3bbd 635a 153e 60e6 723e 9d24 3f3e
00000040: e0e2 4cbd 29c2 91bd 3a68 17be 58a3 57be
00000050: b09c 5e3b 3fba dfbd 1c0e d2bd bbe7 213d
00000060: bc01 a7bd 67b5 4bbe c893 293c fa1f 92bb
00000070: a1d4 3ebd 03d9 2dbc 8a4e 9d3e d16c d43d
00000080: e397 18b8 852d 9d3c f266 5c3e 1d5c 8f3e
00000090: 6f53 893d ebf7 523d 4111 4bbd e63b 533d
000000a0: 3c5c 67be 973d bb3d 7a68 493d f693 1f3e
000000b0: fcab 8abd ef2d 963b edfe a1be 4661 febd
000000c0: f52f 4dbd 066b 9c3e 4b90 093e 63a4 0a3e
000000d0: 7da6 5c3d 079b b53c e6e2 8f3c 28e9 f93d
000000e0: 72c4 043e 7db7 a6be b51c 8dbd b159 1a3e
000000f0: 50d7 bc3c cb38 d73d d7ff 27bd ad79 923e
00000100: 4440 6e3e e3ad 223e 6470 00be 3560 e13d
00000110: 9ab4 633d a964 15bd 3482 4a3e c13a 4ebc
00000120: 3606 57bd 76b6 1dbd 7ed3 a63d f9e8 183e
00000130: e805 6b3d 619c fd3d 583e 49bd 83b2 a13d
00000140: 73e6 7a3c a5ce 3cbe fc05 abbe 8f36 74bc
00000150: 5fa6 343e d6a1 3a3e c2cc a6bd 85aa 83be
00000160: a94a 98be e77b 013e c2c6 d0bc 5b59 18bd
00000170: 7bf7 4bbd ff78 163d 177c 85be 0816 fdbd
00000180: d804 d53d 183e 2e3e fadf 143c bf3c 7bbd
00000190: 4104 d73c 42c8 c33d b705 09be 8075 5cbd
000001a0: 2f58 a9bd ed48 273e a2ba 5a3e 4d4a 2dbd
000001b0: 0cdd eb3d 92d2 383d 873b 3ebe 7d30 f53b
000001c0: 28e9 e93d d671 883c 30e6 2abe 703e 89bc
000001d0: a081 c5bc 829a 82bd 8b1a 13be c099 0abe
000001e0: 55be 1e3c fc4a dbbd a2a4 dc3d ab83 233c
000001f0: 6ab8 6abe b4db 8c3b 19c5 8b3d f5c4 0c3d
00000200: d640 2d3d b101 dbbd 5683 113e b1d1 633d
00000210: ede4 893d a7fd 61be 5e88 d13c 3720 dfbd
00000220: f724 93be b1df 6b3e bd94 863e 7edd c33c
00000230: 9310 4abd a906 01bd afd4 f73d bf43 84bc
00000240: ad1a 8c3e af6c 153e bb83 003e 16ee 74bd
00000250: 9798 8b3d 67ea d83c eb38 963c fd3c 5fbe
00000260: 6554 25be 9409 b63e f48c 3f3e e4b0 a2bd
00000270: fdd4 7dbe 9d5a 11be 5c39 e13c b578 f2bd
00000280: 3f20 a4bd 703a 0c3c ae1e f03d 1a9a 403e
00000290: 83e2 3bbd 1f38 733d 6a49 92bd 32c1 db3b
000002a0: 454e 22be 8626 bebc 487e 40bd 60f5 0ebe
000002b0: 55ae 073e abce 9c3d 3bc4 f4bc d839 86bc
000002c0: 9971 79bc e2ec 593d bc79 b83d e142 efbd
000002d0: 6809 43bd 2643 f8bb a306 4ebe a6c1 dc3c
000002e0: 6705 c93d dced cb3d f8b0 283e 593f fa3d
000002f0: 6b73 513e d901 233e cfb7 613e 1ac6 fcbe
00000300: f33f 80bc 0dfb 5ebc c9db 5dbd ab2c 6abe
00000310: e44c 65bc 2e46 2bbc 911a 8cbd bed8 05be
00000320: 3937 a83d 9ecd af3c 3241 a43d 2667 db3d
00000330: 7e99 39be 5ed5 6a3e d34f 9cbd 1583 283e
00000340: d4d9 043e a0a2 383e 4afa bcbd 2537 843d
00000350: 0b61 47be 6cec 27be f517 803d 5028 943d
00000360: da0a 9ebd ca8c 343d 5d49 053d 6ed7 64be
00000370: 245a c73d bc7e 573d 3c4c 493d ad75 c9bd
00000380: 5767 053e a954 403d 925b 1cbe 1dce 33be
00000390: 0342 4bbd aef0 013d 85d1 113d 0678 71bd
000003a0: 919a 97bd a6d3 16bd cc20 a23e 74a4 523e
000003b0: 7e56 55be 81c9 90be 3e75 043d 3d81 013e
000003c0: bad6 143e eadc 433e e5c1 c3bd f330 9b3d
000003d0: 8c4e debd 1807 ecbd 0b4a f43c e32f 4fbe
000003e0: 93d1 2d3d d90f 073e 4077 50be 23c2 9fbd
000003f0: 1fce 82bd c59d 62be c621 2d3e b527 c2bc
-0.11737976 0.18394387 0.018455608 0.0064072725 0.0079828985 0.1225374 -0.145898 0.018151127
0.009642088 -0.14817731 0.10710597 -0.009361556 -0.045863505 0.14585261 0.23720694 0.1866631
-0.050021052 -0.07117111 -0.14785853 -0.21058404 0.0033967905 -0.109241955 -0.102565974 0.039527636
-0.08154628 -0.19893418 0.010350175 -0.0044593783 -0.046589497 -0.010610822 0.30723983 0.103723176
-3.638108e-05 0.019186744 0.21523646 0.27999964 0.06705367 0.051505964 -0.049577 0.051570795
-0.22593778 0.09142607 0.049171902 0.15583786 -0.06771085 0.0045831124 -0.31639805 -0.12420897
-0.050094564 0.30550402 0.1343395 0.13539271 0.053869713 0.02216865 0.017564248 0.12202674
0.12965563 -0.32561865 -0.06890241 0.15073277 0.023051888 0.10508879 -0.041015472 0.28608456
0.23266703 0.15886645 -0.12542874 0.11004678 0.055592157 -0.03647295 0.19776231 -0.01258725
-0.052496158 -0.038504086 0.08145808 0.14932622 0.05737868 0.123833425 -0.04913172 0.078953765
0.015313732 -0.18438204 -0.33403003 -0.014905586 0.1764159 0.18225798 -0.08144523 -0.25716034
-0.2974446 0.12644921 -0.0254854 -0.03719459 -0.049796563 0.036736485 -0.26071236 -0.12357718
0.104013145 0.17015874 0.009086603 -0.06133723 0.026247146 0.095596805 -0.13381086 -0.053822994
-0.08268773 0.16336413 0.21360257 -0.042307187 0.11516771 0.04512269 -0.18577395 0.007482587
0.11421424 0.016655844 -0.16689372 -0.016753405 -0.024109662 -0.06377126 -0.14365594 -0.13535213
0.009688933 -0.107076615 0.10773589 0.009980123 -0.22921911 0.0042986516 0.06824703 0.03436752
0.04229816 -0.10693682 0.14210257 0.0556199 0.06733117 -0.22069417 0.02557772 -0.10894816
-0.2873914 0.2303455 0.26285353 0.023909327 -0.049332213 -0.031500492 0.12101113 -0.016145585
0.27364102 0.14592241 0.12550251 -0.05979737 0.068162136 0.02647896 0.018337687 -0.21800609
-0.16145475 0.35554183 0.18706113 -0.079438955 -0.2478828 -0.14194722 0.027493171 -0.11839429
-0.08013963 0.008558854 0.11724602 0.18808785 -0.045870315 0.059379693 -0.07142909 0.0067063803
-0.1585017 -0.023211729 -0.04699543 -0.1396079 0.13250096 0.07656606 -0.029878726 -0.016385004
-0.015224838 0.053204425 0.09007594 -0.11682678 -0.047616392 -0.007576364 -0.20119719 0.026947808
0.098154835 0.099574775 0.16473758 0.12219114 0.20454185 0.15918674 0.22042774 -0.4936989
-0.015655493 -0.01360966 -0.05416468 -0.22868602 -0.013995383 -0.010453744 -0.06841005 -0.13070962
0.08213658 0.02146035 0.080202475 0.107130334 -0.18124959 0.22932956 -0.07632413 0.16456254
0.1297372 0.18030787 -0.09227426 0.064558305 -0.19470613 -0.16398782 0.062545694 0.072342515
-0.077169135 0.04407958 0.032540668 -0.22347805 0.0973399 0.052611098 0.04914497 -0.09836898
0.13027702 0.04695574 -0.15269306 -0.17559095 -0.0496235 0.03172367 0.035600204 -0.058952354
-0.07402528 -0.036822937 0.31665647 0.20570546 -0.20833775 -0.28278735 0.032338373 0.12646957
0.14535037 0.19127241 -0.09558467 0.07577696 -0.108548254 -0.115247905 0.029820463 -0.20233111
0.042436194 0.13189639 -0.2035799 -0.078007005 -0.06386971 -0.22130497 0.16907415 -0.023700574

MLP.0.bias f4 [256]
00000000: 94af 26be 6657 21be 4f70 debd 937e 2bbe
00000010: d874 23bd 9930 fdbd 42bd 2cbd e753 58be
00000020: 81ad 6abe 996e 59be 4977 2cbe 08fb 2dbe
00000030: a849 06be 3f8f 2fbe ff9d febd 0884 87bd
00000040: 8844 7fbd 7eb7 95bd 05c9 85bd 3acd 34be
00000050: b1bb 2fbe 78dd ebbd 7394 1abe aa99 fdbd
00000060: 7a63 99bd d472 90bd 51a3 e0bd 4604 8ebe
00000070: 9d5b 36be 50cd c9bd c304 dbbd 7a74 5dbd
00000080: ae48 b2bd 7954 eebd 19cf a73c 6f57 70be
00000090: 7f65 42be fca2 e0bd 29ba 02be d4ea 90bd
000000a0: dfa6 41be 22fd 09be 0155 e4bd 21b8 65bd
000000b0: 66bf a6bd a8e4 03be e46c 28be 0340 9ebd
000000c0: 0eb7 723c 7a94 22be b50b 8dbe 0e3b 25be
000000d0: 29f0 13be 5078 24be abb6 bbbd cc10 4bbe
000000e0: bc2a 38be fd78 91be a976 7fbe b277 89bd
000000f0: 886a 00be ebd8 0ebe f4b7 dbbd 1635 e2bd
00000100: 70fd f0bd e84e 13be 0037 90bd 6b0e a9bd
00000110: 1f46 07be c577 0fbe 85c9 4e3c baed eabd
00000120: 808d 30be 5d95 483c 09b8 09be 895a adbd
00000130: d908 cfbc 56ed 34be 7439 fcbd f22d 4bbe
00000140: d530 14be dd81 8d3c f262 3bbe 25ce 6dbe
00000150: 9538 acbe 799c 71bd 697d 5c3c 13c2 7fbe
00000160: 46c8 fbbd a097 d2bd 532e 18be 4c64 90be
00000170: fa2f 10be c162 0fbe dc73 28be 5284 2ebe
00000180: f805 7dbe d944 17bc 3b3c debd d18a 71bd
00000190: c44a 2dbe 371f 1abe 4cd0 e4bd 826d 33be
000001a0: 8d11 28be 06b4 a6bd ea11 59be 40fa b9bd
000001b0: 89c7 38bc 44c9 42bd 202a 00be 462e 48be
000001c0: 492c 0cbe 83b6 24bd d0e0 20be 4aaa 1ebe
000001d0: 7cb7 28bd 3f5e 02be 57fe 97bd 70a5 1abe
000001e0: e933 c8bc a98b 3bbe b293 28be 8f1a 59be
000001f0: 215b f3bd 23bc 95be 46e1 8cbe ec3d 6ebd
00000200: bc1b 04be 3fa9 73bd c850 01be 0e1e 99be
00000210: b895 13be b833 d8bd fb34 15be 57a5 bcbe
00000220: 1d59 83bd 88ea 3bbe 1ad3 d9bd b6c4 b8bd
00000230: 0525 09be fa32 3ebd d667 1fbe c389 79be
00000240: cf62 fdbd 88d8 72bd 319c 43be 7131 3abe
00000250: 5505 71bd 3242 e83b 0d0b e5bd 8d1e 33bc
00000260: c96e 3fbe 0d25 0dbe 5164 95bc e708 33be
00000270: 9707 93be 770c 15be 213f 66be 5797 a2bc
00000280: 3052 47be 24a9 c2bd 89ab 0abd 9b8d a0be
00000290: 777c 4ebe b12b 30be e5ef 1fbe 59e3 2cbe
000002a0: 4438 00be 0b56 52bd 1c06 ebbb 435b a5bd
000002b0: 4d44 0cbd 3cf4 03be 2c05 dbbd cd21 a4bb
000002c0: dbea 41be 5049 a93d f774 113d 12e2 7abd
000002d0: ef64 a6bd b102 1abe 186d 31bd dd06 7bbe
000002e0: 0634 f9bd 2cbe 2cbe b8de edbd a14b 14be
000002f0: fc8d a5bd b80c 86be aa09 d9bd 1777 51bd
00000300: 88a5 93bd c599 c6bd e09c c83c dbd8 07be
00000310: cf5f 5bbe 1c7a 82be f73f 4ebe 4e21 02be
00000320: b409 58bd af12 38be ce6c 58be ece0 d7bc
00000330: 9027 22be a89b e3bd 744f 30be f5f2 60be
00000340: f15e b0bd 66a8 a4bd 8edd 13bd a04d ffbd
00000350: 5e5e abbd 61fc 10be 1159 31be 78af b0bd
00000360: 8b46 30bc 94cc bfbd 1412 edbd 8c3d 0abe
00000370: 342b 19be bdda 73be 5db4 05be 1bc9 00be
00000380: e889 24be 8354 7e3c 49f5 f4bd e4fb 0ebe
00000390: 2e9c aabd ddbd f7bd 4bad 6dbe 0d98 c9bd
000003a0: 9731 5ebe 1a03 82bd 019c c2bd 9a7b dfbd
000003b0: c921 55be b3af 8dbc ef6d ebbd d306 d8bd
000003c0: 75d7 11be 465b dabd c304 21be ece2 56be
000003d0: 2184 2bbe b267 babd ff4e 0bbd f878 00be
000003e0: 4473 5cbe e74f b2bd 82fd 2cbe f4c1 b8bc
000003f0: a199 85be 8d6c d1bd 864b 81be 122a 8dbc
-0.16277915 -0.15755996 -0.10861265 -0.16747503 -0.039906353 -0.12362785 -0.042172678 -0.21125756
-0.22917749 -0.21233596 -0.16842379 -0.16990292 -0.13114035 -0.17144488 -0.12432479 -0.0661698
-0.062321216 -0.07310389 -0.06532482 -0.17656413 -0.17161442 -0.11516851 -0.15095691 -0.12382825
-0.07489677 -0.07053152 -0.1096865 -0.27737635 -0.17808385 -0.098536134 -0.106942676 -0.05406616
-0.08705269 -0.11637206 0.020484494 -0.23470853 -0.1898403 -0.10968587 -0.12766327 -0.0707604
-0.18911313 -0.13475469 -0.11149026 -0.056083802 -0.08141975 -0.12880194 -0.16447788 -0.07727053
0.014814151 -0.15876952 -0.27547994 -0.16135809 -0.14447083 -0.1606152 -0.091657005 -0.19830626
-0.17985052 -0.2841262 -0.24947609 -0.06712283 -0.12540638 -0.13949935 -0.10728446 -0.110452816
-0.11767089 -0.14385569 -0.070417404 -0.08254703 -0.13210343 -0.14010532 0.012621288 -0.11471124
-0.17241478 0.012242642 -0.1344911 -0.08464534 -0.025272774 -0.17668661 -0.12315646 -0.19841745
-0.14471753 0.017273838 -0.18299463 -0.23223169 -0.3363692 -0.058987115 0.0134576345 -0.24976377
-0.122940585 -0.102828264 -0.14861421 -0.2820152 -0.14080802 -0.14002515 -0.16450447 -0.17042664
-0.24709308 -0.009232723 -0.10851332 -0.058970276 -0.16923052 -0.1505097 -0.11172542 -0.17522243
-0.16412945 -0.081398055 -0.2119824 -0.090809345 -0.011278042 -0.047555223 -0.1251607 -0.19548902
-0.13688768 -0.04021312 -0.15710759 -0.15494648 -0.04119061 -0.12731265 -0.07421558 -0.15102172
-0.024438815 -0.18314995 -0.16462591 -0.21201538 -0.11882616 -0.292451 -0.2751562 -0.058164522
-0.12901205 -0.059487578 -0.12628472 -0.29905742 -0.14412582 -0.105567396 -0.14570992 -0.36844894
-0.064134814 -0.18351185 -0.106359676 -0.09021895 -0.13393028 -0.046435334 -0.15566954 -0.24368958
-0.12372362 -0.05928853 -0.19102551 -0.18182923 -0.058842976 0.007087969 -0.111837484 -0.010932577
-0.18694605 -0.13783665 -0.018236311 -0.17483865 -0.28716728 -0.14555536 -0.2248502 -0.019847555
-0.19464946 -0.09504917 -0.033854995 -0.31358036 -0.20164667 -0.17204167 -0.15618856 -0.16883601
-0.12521464 -0.05135159 -0.007172359 -0.080740474 -0.034244824 -0.12886137 -0.10694346 -0.005008912
-0.18937247 0.082659364 0.035511937 -0.061250754 -0.0812472 -0.15040089 -0.04331693 -0.24514337
-0.12168126 -0.1686942 -0.11614746 -0.14481975 -0.08083722 -0.2618158 -0.105975464 -0.051138964
-0.07209307 -0.09697298 0.024488866 -0.13266318 -0.21423267 -0.25483787 -0.20141588 -0.12708017
-0.05274363 -0.17975877 -0.21135256 -0.026352368 -0.15835404 -0.111136734 -0.17217809 -0.21967681
-0.08611859 -0.08039932 -0.036099963 -0.12465978 -0.083676085 -0.14158775 -0.17319132 -0.08627218
-0.010759006 -0.09365192 -0.11575714 -0.13500041 -0.14957887 -0.23813911 -0.13057084 -0.12576716
-0.16068232 0.015523079 -0.11960847 -0.13963276 -0.0833057 -0.120967604 -0.23210637 -0.098434545
-0.21698605 -0.06348248 -0.09502412 -0.10912247 -0.2081367 -0.017295694 -0.114955775 -0.105481766
-0.14242347 -0.1066194 -0.15724473 -0.20985001 -0.16749622 -0.091018096 -0.034010883 -0.12546146
-0.21528345 -0.087066464 -0.1689358 -0.022553422 -0.26093772 -0.102257825 -0.25252932 -0.017231975

MLP.2.weight f4 [256, 256]
00000000: bb72 0ebe b3d5 2d3e 2f95 4bbe 7610 ffbd
00000010: f4ff e93d 52f5 2e3e 4913 6b3e bd3d 563d
00000020: cc7b 4b3e 08e4 3dbc 881e 90bd 7dbb a03d
00000030: 8c12 103d 0270 013e 67d6 063d f261 25bd
00000040: ac68 f7bd 1853 18bd 00c6 9dbd 6858 9bbd
00000050: 1154 923d 6aa5 ff3d ed3f 2bbe 2b93 bebd
00000060: fba5 27be 0650 47bd 69dc 99be 2f6e 9c3e
00000070: 2674 893e a1fb 553e 3acb 7dbb 3486 29bd
00000080: 180d 13bd 6ce6 dabd 6be2 6dba 38c9 c0bd
00000090: 448b bdbd b951 353c 12d1 e6bc 7d49 94bd
000000a0: 33b1 27be 54b0 8cbe fc76 ef3c 4d1f b8be
000000b0: df34 e7bc 44a4 36be 5c4a 94be 94d6 06be
000000c0: 46fb 8ebd 29eb 323d 3da3 32be d4c0 d8bd
000000d0: 6a6a 3fbe 9b5d adbd e1b8 363e 6977 66be
000000e0: 1da9 40be 2f05 6b3c 60ed b6bd 1ba1 a13e
000000f0: 7043 873d 1439 2c3e dd24 973d 8033 2f3e
00000100: a192 b03d 42c8 30bc 37b1 46be 0119 cc3d
00000110: 43c3 86be 337b ce3d 9bed 8ebe aaea e93a
00000120: 96ac 1abd bf16 fcbd 6845 483c 0937 ba3d
00000130: d735 34bc 07ee c63d 7d8c a83d 9f66 9bbc
00000140: 4914 cc3d 0020 04be 60d3 35bc b28b 8dbc
00000150: 87c9 c0bd dcea cbbe bc28 94bb e723 92bd
00000160: 8259 4fbe 6c57 b1bd 7151 2dbc 55ac 4a3d
00000170: d0b3 81bc 9951 35be 4195 bc3c 8f84 19be
00000180: a80c bf3d dda7 c53d 59dc db3d d959 5cbe
00000190: 8bd2 a6bd c709 04be 0a6c 033e a75b ca3d
000001a0: 08da 99bd 7eae 85be 14b1 d3be 0f23 203d
000001b0: 0840 1c3d ae99 0f3d 31b4 55bc 48b6 3d3e
000001c0: 9ba9 f5bd 650c ed3d 26d3 dd3d e489 05b8
000001d0: e192 d3bd a312 b63c c8fa 0d3e 8418 d4bc
000001e0: 04f0 0cbe 6874 4dbd ea30 4e3e 7d40 4fbe
000001f0: 77cd 6d3e 6fcd 883d 4438 c1bd 5628 743e
00000200: 81c2 853e 16e9 30be 43f3 033e 26a8 6c3e
00000210: da35 1fbe dbde 25be d9fb 513e bee9 06be
00000220: 454b e13c bee7 d93b 49c4 9d3d 1e7e 5a3e
00000230: 4d61 8f3d 94a4 21bd b0b2 3bbe 9de2 863d
00000240: d84b 0cbf 946b 993d d480 2bbe 0514 d1bd
00000250: 695a b53d b1b3 b9bd 77f2 9b3c 210b 3d3c
00000260: 30a9 a0be 3fce b33d 5975 873c 99ce 133d
00000270: 081c 093e 9230 4dbe d79b 163d e032 05bf
00000280: 0dcb d6bd 61c6 2bbe bf52 29be 1b1c 9ebe
00000290: 0b81 34bd 07b2 15be 8425 26be 1dde 203e
000002a0: 929a ddbe 2eaa 88bd 23a4 f9be 7453 3cbe
000002b0: ee96 cf3b cb0c 6bbd ee40 02be 20af 343c
000002c0: 40d6 2abc 0b5f a8be 90a1 02be 4ae2 bd3d
000002d0: 8401 1cbd f97e 12be c880 59bd 891f efbe
000002e0: fdb2 9a3d 7d81 ec3d b5e2 8e3d bba0 cf3d
000002f0: db5f 08be 3210 b9be c87f cdbd 236b ac3d
00000300: e531 443e 5e02 9dbe 8ecd 243d 8ed1 423d
00000310: 4ad2 c93c 0d3b b13d 7d0d 5f3d 9b65 6bbd
00000320: 3e9c d1bd fe01 6dbe 787f a6be c2c1 00be
00000330: 77be 01be bafc f83d c6ca 673d 79ed fa3d
00000340: 9751 1d3d 72d4 5dbd 1687 083e 6c91 de3d
00000350: b52a efbd ebac 8cbe ced4 b6bd ee1d f8bc
00000360: cd90 86bd d93d d53d b320 733e 4f43 81be
00000370: 7a52 2e3c cac3 18be 9de6 b3be d66e 6bbd
00000380: 12db e63d 231a 003d 12fe 11be a559 7e3e
00000390: 71c9 e8bd fc20 2e3c 2e96 6abe 321f 2bbd
000003a0: 366a 433e 5e1c b9bd ed51 52bc a12e 0b3e
000003b0: 17ae 903c a011 f9bd 836b 9fbe 90f7 36be
000003c0: 8a14 0e3d d6c0 98bd 39cd a63d 9920 523e
000003d0: 5cce 71bd bade 6dbc 7e44 223e 72f1 ffbd
000003e0: 87ac debe 2423 1abf c694 2a3e 84d4 e03d
000003f0: 7091 5ebe cdb7 b8bc c82a 5dbe 87b2 f2bc
-0.13910954 0.16976051 -0.19881128 -0.124543115 0.11425772 0.1708577 0.22956575 0.052304972
0.19871444 -0.011590011 -0.070370734 0.078482606 0.035173938 0.12640384 0.032919314 -0.04037661
-0.120805115 -0.03718862 -0.07703781 -0.075852215 0.07144941 0.12482722 -0.16723605 -0.09305414
-0.1637191 -0.0486603 -0.30050972 0.30552813 0.26846427 0.2089677 -0.0038725869 -0.04138775
-0.03590116 -0.10688481 -0.00090745714 -0.094133794 -0.092550784 0.0110668475 -0.028175864 -0.07240579
-0.1637619 -0.27478278 0.02923154 -0.3596138 -0.028223453 -0.178361 -0.28962982 -0.13167793
-0.0698152 0.043681297 -0.17445083 -0.10583654 -0.18692937 -0.084651195 0.17843963 -0.22506489
-0.18814512 0.014344498 -0.089319944 0.31568226 0.066046596 0.16818649 0.07380078 0.1710949
0.08621717 -0.010789933 -0.1940354 0.099657066 -0.26320848 0.10082092 -0.27915654 0.0017846425
-0.037762247 -0.12309026 0.012223579 0.090925284 -0.010999165 0.09713369 0.08229921 -0.018969832
0.099648066 -0.12902832 -0.011097759 -0.017278526 -0.09413438 -0.3982762 -0.0045214575 -0.07135754
-0.20248988 -0.086592525 -0.010578499 0.049480755 -0.015832812 -0.17706908 0.023020389 -0.14991973
0.09328586 0.09651158 0.10735387 -0.21518649 -0.08145627 -0.12894355 0.12834182 0.098807625
-0.07512289 -0.2610969 -0.41346037 0.039095934 0.038147002 0.03505867 -0.013043449 0.18526566
-0.1199524 0.1157463 0.10831289 -3.183809e-05 -0.10330749 0.022225684 0.13865197 -0.025890596
-0.13763434 -0.05015984 0.20135847 -0.20239444 0.2322291 0.06679808 -0.0943456 0.23843512
0.26124957 -0.17276415 0.12885766 0.23111019 -0.15547886 -0.16198294 0.20506229 -0.13175103
0.027501712 0.0066499403 0.07703454 0.21337172 0.070009805 -0.039463595 -0.18329883 0.06586192
-0.5480323 0.07491222 -0.16748363 -0.102088965 0.08855135 -0.090674765 0.019036515 0.011538298
-0.3137908 0.08779573 0.016535448 0.0360857 0.133896 -0.2003806 0.036769714 -0.52030754
-0.104879476 -0.16774894 -0.16535471 -0.30880818 -0.044068377 -0.14618693 -0.16225249 0.1570973
-0.4328199 -0.06673084 -0.4875804 -0.1839121 0.006335131 -0.057385247 -0.12720081 0.011028081
-0.010427058 -0.32885012 -0.12756944 0.09271677 -0.038087383 -0.14306249 -0.05310133 -0.46703747
0.075536706 0.115481354 0.06976835 0.10138079 -0.13317816 -0.3614517 -0.10034138 0.08418872
0.19159658 -0.3066587 0.040235095 0.04756313 0.024636406 0.08653841 0.054456223 -0.057469945
-0.10234879 -0.23145291 -0.32519126 -0.12573913 -0.12670313 0.12157579 0.056589864 0.122523256
0.03840789 -0.05415768 0.13332781 0.10867581 -0.116780676 -0.27475676 -0.08927308 -0.03028771
-0.06570587 0.10412187 0.23742943 -0.25246665 0.010639781 -0.14918438 -0.3513688 -0.05747875
0.11272253 0.031274926 -0.14257076 0.24838884 -0.11366547 0.010627981 -0.22908852 -0.041777797
0.19083485 -0.09038614 -0.012836915 0.13592006 0.017661138 -0.12161565 -0.31136712 -0.17867875
0.034687556 -0.074586555 0.08144612 0.20520248 -0.05903469 -0.014518434 0.1584644 -0.12497224
-0.43491003 -0.6020987 0.16658315 0.10978034 -0.21735168 -0.02254858 -0.21598351 -0.029626144

MLP.2.bias f4 [256]
00000000: 08ee e8bd 4df4 d4bd edd2 22be bea9 f8bc
00000010: 68e8 b43b b7d1 c73d e7d9 01be 6cf3 4cbd
00000020: 7fb2 f3bd b7de f8bc f5e7 263e b1b8 f4bd
00000030: ce65 5bbd d8f6 f8bd 1db0 62bc 1d45 91bd
00000040: 7d50 55bd 6702 3c3d 6ac1 413d 9e44 8bbc
00000050: c5a7 1bbe 364b 1bbe 9800 16be 662d b4be
00000060: 2c6c 29be a9d5 4dbe 4511 8a3d 3d35 23be
00000070: 3235 79bd 3ac1 cd3d d2ce 21be 1ed7 40bb
00000080: 6e0a 79be 46a5 a8bd 1faa 17be b44c f1bd
00000090: aa77 f3bd d3a3 2dbe 0fcd 1cbb 9fea 10be
000000a0: 4cff 09be aa35 82bd 0f2d 8c3d 974c 2abe
000000b0: afc5 fa3c 8291 bcbc 3d38 35bd 2779 1f3d
000000c0: de95 15bd 0880 d53c 566b 98bd a395 1ebe
000000d0: d4b3 4dbe 16fe e93c f002 573d 70ae 343c
000000e0: b179 99bc d301 ecbe dc1b 63bd 9bb7 93be
000000f0: 12d8 84be 1df7 25bd 0096 d8bd 8819 60bd
00000100: 1907 9ebd 02f3 7abd a558 23bd 044f 07be
00000110: 50f0 dabd fe0a 8bba 6599 90be 4f6a d4bd
00000120: cf4f 1a3d 3f2e 87bc 11cd e2be c0c8 60bd
00000130: 802c 5cbd e852 54bd f368 963c 163f 56bc
00000140: 26a2 2bbe 5dbc aebd e619 acbd a28c 28be
00000150: 6760 d3bd d03b 903c 7434 8cbd b7a2 bdbd
00000160: 4e3f 37be feef d9bd bc56 23be 3788 23be
00000170: 96d4 76bd d7de 453c 5a25 58bd ed97 94bc
00000180: 58c9 a7bd ebb2 70be a29b 1dbe de40 8e3d
00000190: 962b cabc 0cf2 65be f17d 6b3c 762d ebbd
000001a0: 76b4 c0bd 2783 f0bd bc26 e33d 3f92 6abe
000001b0: d414 82bd 3416 8abe 0208 acbe 1ccd cc3c
000001c0: 9876 02be dff9 febd 2045 27be 75a0 1bbe
000001d0: 2be6 04be 8ce5 a7bc 84f5 81bd 39a0 58bc
000001e0: def3 9dbd 3493 93bd 85f3 06be 07da 8cbd
000001f0: 6f17 c9bc 47a3 b3be a286 1d3c 070e 3b3d
00000200: 25e3 13be 1af1 63bd 98bf d9bb b0f1 15bd
00000210: 9929 2cbe 338c e5bd 51c5 64bd c332 63bd
00000220: d2b5 46bd ca55 6bbb bc4e 77bd 96ff 063e
00000230: 4a5d 08be 4b53 c8be 80b3 25be d2d2 82bd
00000240: fa35 20bd a3cb a6be ff25 bebd e3ac 563d
00000250: f867 f4bd 4f98 63be 7ed3 e4bd 09ff 3ebd
00000260: 0ad2 06be 4859 84bd 1c9d 4abe 8879 80ba
00000270: 2d29 6e3c b39c 4fbd 244d 2fbe f163 8b3d
00000280: a336 92bc 426c 43bd 4ead 85be 7257 7dbc
00000290: c0c8 5fbe c84b c4bd 982b 4ebb a77b 35be
000002a0: dc5e 0dbd 1a2d 67be e793 ecbd 6e4d cdbd
000002b0: 0c47 95be 1be5 08be a4ea 01be 9687 5ebd
000002c0: f259 2bbb 2625 d6bd acd4 17bd 84a4 fdbc
000002d0: 46e8 e3bd 53d1 16be a368 393b 0d84 47bd
000002e0: 2eb3 fcbc c8c7 33bd a1b4 ba3d 6a50 a4bc
000002f0: 825f 1bbe 5cf9 c8bd b9b0 bfbd f94f 513d
00000300: cdb8 b43c 45da e5bd a258 8d3d 8974 2cbe
00000310: 89ff 0c3e 92c9 47be bd03 d0bc 7b24 40be
00000320: 4751 e3bd cfa4 a8be 53dc 89bd 45bc bcbd
00000330: 2971 c83d 8e1f 2fbd c37f 4bbd 216c acbd
00000340: 22cc 53be b8aa 34be a33e 3ebe 09b0 a4bd
00000350: b853 8b3d 19b8 bcbd 99b1 1dbd 49d3 3bbe
00000360: d3ae b0be e437 b1bd f1f8 11be 7227 7d3d
00000370: 68fe 4ebe 7764 7ebe 1761 cdba 850c f0bd
00000380: 4edc 9c3c 78d5 71bd b085 fbbd be5d 31be
00000390: cd61 d6bc 36ae 9e3c 5174 28bd 8e6b 87bd
000003a0: 33ce 8e3c d44f e6bd a2e6 f5bc 0920 023d
000003b0: 0a49 e53c 12b3 8abd 8700 d5ba 2c71 c1be
000003c0: 5d9e d3bd a5eb 8bbd d77c 77be 1e05 ee3c
000003d0: 1de3 c8bd a4b7 1fbe 45e6 cbbe 6755 56be
000003e0: 2161 0ebe eeda c73b 135b c8bd 6259 903d
000003f0: 2829 d4bd 0fb6 18bd 4d8a 8ebd 9214 56be
-0.11373526 -0.10398159 -0.15900774 -0.030354377 0.005520869 0.09756797 -0.1268078 -0.050036833
-0.1189928 -0.030379636 0.16299422 -0.119492896 -0.053563885 -0.12156457 -0.013835934 -0.070932604
-0.052078713 0.04590073 0.047303595 -0.017000493 -0.15200718 -0.1516541 -0.14648664 -0.35190886
-0.1654517 -0.20101036 0.06741575 -0.15938278 -0.060841747 0.10046621 -0.15801552 -0.0029425095
-0.24320385 -0.082346484 -0.1481099 -0.11782208 -0.118880585 -0.16957025 -0.0023925935 -0.14152001
-0.13476294 -0.06357892 0.06844532 -0.16630779 0.030611841 -0.023018602 -0.044243086 0.0389339
-0.036519878 0.026062027 -0.07442348 -0.1548677 -0.2008813 0.02856354 0.052493036 0.011027917
-0.018734785 -0.46095142 -0.05544649 -0.28851017 -0.259461 -0.04051887 -0.10575485 -0.05471185
-0.077161975 -0.061266907 -0.03987946 -0.13213736 -0.10690367 -0.0010608134 -0.2824203 -0.10371839
0.037673768 -0.016501544 -0.44297078 -0.05487895 -0.053753376 -0.051836878 0.01836059 -0.013076564
-0.16761073 -0.08532021 -0.08403377 -0.16459897 -0.10321122 0.017606646 -0.06845942 -0.09259551
-0.17895243 -0.10641478 -0.15951055 -0.1596993 -0.06026133 0.012077055 -0.052769996 -0.01813885
-0.081927 -0.23505752 -0.153914 0.06945966 -0.024678987 -0.22455615 0.0143732885 -0.1148328
-0.0940942 -0.11743765 0.11091372 -0.22907351 -0.06351629 -0.26970065 -0.3359986 0.025000148
-0.12740552 -0.12450003 -0.16334963 -0.15197928 -0.12978427 -0.020495199 -0.063456565 -0.013221794
-0.077125296 -0.07205811 -0.13178833 -0.06877523 -0.024547307 -0.35085508 0.0096146185 0.045667674
-0.14442118 -0.055649854 -0.006645154 -0.036607444 -0.16812743 -0.112083815 -0.055852238 -0.055468332
-0.04851324 -0.0035909289 -0.06037782 0.13183436 -0.13316837 -0.39126047 -0.16181755 -0.06387867
-0.039113976 -0.32577237 -0.09284591 0.05241097 -0.11933893 -0.2222607 -0.111731514 -0.04662994
-0.13166061 -0.064623415 -0.19786495 -0.0009801844 0.014536184 -0.05068655 -0.1711927 0.06806172
-0.017848318 -0.047710665 -0.26108783 -0.015462743 -0.21853924 -0.095847666 -0.003145909 -0.17722951
-0.034514293 -0.22575799 -0.11551648 -0.10024534 -0.29155767 -0.13368647 -0.12687165 -0.054328524
-0.002614614 -0.10456304 -0.037068054 -0.030962236 -0.11128287 -0.14728288 0.0028291128 -0.048709918
-0.030847158 -0.043891698 0.091164835 -0.020057876 -0.15173152 -0.098131865 -0.09359879 0.05110166
0.022060776 -0.11223272 0.06901671 -0.1684133 0.13769354 -0.19510487 -0.025392408 -0.18763916
-0.11099487 -0.3293824 -0.06731477 -0.09215597 0.097872086 -0.042754702 -0.04968239 -0.084190615
-0.20683339 -0.17643249 -0.18578582 -0.080413885 0.068030775 -0.09214801 -0.03849945 -0.18342318
-0.3450838 -0.086532384 -0.1425512 0.061805196 -0.20214236 -0.24843012 -0.0015669194 -0.11721138
0.019148018 -0.05904147 -0.12281358 -0.17320916 -0.026169682 0.01937018 -0.041126553 -0.06612311
0.017432308 -0.11245695 -0.0300172 0.031768832 0.02798893 -0.06772436 -0.0016250768 -0.37781656
-0.1033294 -0.06832055 -0.24168716 0.029055174 -0.098089434 -0.15597397 -0.3982412 -0.20931016
-0.13904239 0.0060990965 -0.09782996 0.070482984 -0.103594124 -0.037283 -0.069599725 -0.20906284

MLP.4.weight f4 [1, 256]
00000000: 6b3b 863e c2b3 38bd 981d 0c3f fa8e 1c3e
00000010: af3b 253e b166 a4bd aec1 e83d 9173 b53e
00000020: e8c7 2bbe cbc1 02be ae3d 293e a78a 373e
00000030: b21b 893e 186d e63e 2acb 19be 6c64 93be
00000040: f440 bcbb 984c b43d 91dd 0f3e f3d3 a0bd
00000050: b9cd a63e 78cc 553e c831 d3bd e3a3 97be
00000060: 70c5 953e ed39 ac3e 5f67 a73d 37b3 1ebe
00000070: 0452 59bd 035d c83d bc67 f6bd 9355 6a3e
00000080: a207 4cbd 0155 283e 23ff 0e3e 9885 ef3e
00000090: 4901 483e 0d38 6e3e 95ec 25be fb24 6d3e
000000a0: 9bb7 de3e 240b 0cbe 4870 c83d c298 573e
000000b0: 80dc 87bd 71e1 e23e eed4 38bd 0c06 0cbe
000000c0: f3e6 35bd 536f 043e 128d 11be 13e0 c03e
000000d0: fc1b 993e ccaf febd d975 09be 943f e53d
000000e0: 314e a83e bb33 bdbe 5af3 a7be 4e1f 1dbe
000000f0: 7af2 c5bd 8486 33be 27d8 f13e ad68 343e
00000100: 6b3e 50be 2813 26bd 62d5 4cbd 9dec 46be
00000110: 2837 ff3d 5aed e9bc c1db d9bd 4f6b eebc
00000120: 2952 87bd 0ebf 813e 5391 73be 4644 5cbe
00000130: 9f79 f13e 332d 963e 51d1 013e b547 66bd
00000140: 32a1 25bd 8057 7e3e dc90 e73e 4af8 ce3e
00000150: 1edf 6b3e 96ca 273e d1aa 803e 6473 acbd
00000160: 9c91 92be b3a3 ac3e 5ab0 863e 9cf6 d63e
00000170: 47ba 48bd efa3 4ebd 818a dabd 74ad 92bd
00000180: d0e5 6f3e 3dd0 d43e 1231 aebe 9f41 01be
00000190: 55f3 8fbc e2e2 243f b892 8ebd 8745 a4bd
000001a0: add7 61bd 1008 ab3e 8ff7 063e 7e46 f3bd
000001b0: 9ba8 43be 72b2 8e3e 820f 4bbe 628d 4e3e
000001c0: 42f3 14bd a08a df3e e34b 13be cf38 1abe
000001d0: d58f 99bd e0f0 96bd 7993 d3bd ee62 9f3d
000001e0: ee5e 84be ce4c abbd 5053 fbbd 4b7d 1bbe
000001f0: 737d febd 599b 86be 1e6b a13d 2d3f e4bd
00000200: 6636 0bbe e771 053e 8c2d a9bd cc16 93bd
00000210: a704 36be 1a4f a2bd dbce 55bd c5f8 4abd
00000220: c2ba 22be be4b 003f 11b6 503e 3258 1d3e
00000230: 742e 853e bef7 56be 4a18 04be d526 04be
00000240: 0a6b c83e 76cf 48be cfb4 aebd e9ad 063e
00000250: 0283 283e 4854 24be c668 b1bd abbc 613e
00000260: cf02 66bd 07ce cc3e 2607 68bd 34fe 13be
00000270: 2993 933e 6733 11be febb 2cbc acf1 d93d
00000280: d6d7 003e aead c23e 6bb4 c93e e244 e9bd
00000290: a680 623e 18a8 8b3e 53f2 2dbd d9d0 b23e
000002a0: f530 273e fb59 9a3e 9ec2 a13e ce34 613e
000002b0: 51ea 35be f964 acbe ec14 8c3e 75c6 93be
000002c0: 415c 333e 322b 4c3e b87a ca3e 1fb5 c4bd
000002d0: 8deb 8b3e 95e2 6ebe 4cf7 22be 38e6 2cbe
000002e0: 3cfa cebd 49be a0bd dfe0 b83e ec0c 0a3e
000002f0: 046c 663e 62be 1abe ec7a fd3d 1e8a 543e
00000300: ede3 fa3d 3d90 8e3e b1b7 54be cffa 4c3e
00000310: 0dc3 db3d d155 033f a1ae e53e c37e 5f3e
00000320: df7f 713e 2813 1abe 1916 a93e 89b5 153e
00000330: f109 f93d 4b84 3abd 1dd5 ab3e 3f3e 4abe
00000340: c2b4 873e 7b61 58be a24c 223e e060 9e3e
00000350: 54ef 273e 7b93 05be 8c5f fcbd c3d7 16be
00000360: 0bb7 54be 340d ab3e d47e 173e b5ae 253e
00000370: 9e0c f3bd e92b 733e d7af 023e 96fc d7bd
00000380: 5ac6 1abe e0a1 693e a9f5 0d3f 2081 a33e
00000390: ef51 64bd 580b e6bd edf8 6d3e 14e0 543e
000003a0: 23db 3cbe a26c 5fbd 8f7c 08be 56f8 41be
000003b0: 0589 acbd b336 4a3e bd1a 113e ff05 24be
000003c0: 5815 233f 2067 1bbe 8353 063f 9eb2 c9bd
000003d0: c4b1 1cbe 34d0 353f 8077 54be 94b4 4b3e
000003e0: d22a c2bd db10 78bd 81af c53e 4996 47be
000003f0: 7848 843e e036 debd 56f9 b7bc acd5 3bbe
0.26217207 -0.045093305 0.54732656 0.15288916 0.16136049 -0.08027399 0.113650665 0.35439733
-0.16775477 -0.12769239 0.16527435 0.17923985 0.26778942 0.45005107 -0.15018907 -0.28787553
-0.0057450477 0.088036716 0.14049365 -0.07852926 0.3257883 0.2087878 -0.103122294 -0.29617223
0.29252195 0.33637944 0.08174013 -0.15498053 -0.05305673 0.097833656 -0.120315045 0.22884206
-0.049811967 0.16438676 0.13964514 0.4678161 0.1953174 0.23263569 -0.1620353 0.23158638
0.43499455 -0.13676125 0.09787041 0.21054366 -0.06633854 0.44312623 -0.04512494 -0.13674182
-0.044409703 0.12933092 -0.1421397 0.37670955 0.29904163 -0.12435874 -0.13423862 0.11193767
0.32872155 -0.3695353 -0.3280285 -0.15343973 -0.09665389 -0.17531782 0.47235224 0.17618056
-0.2033631 -0.040545613 -0.050008185 -0.19426198 0.12461692 -0.02855556 -0.10637618 -0.029103903
-0.06607468 0.25341076 -0.23785906 -0.21510419 0.47163102 0.2933136 0.12677504 -0.05622073
-0.04043693 0.24838066 0.45227706 0.40423805 0.23034331 0.16385874 0.25130323 -0.084204465
-0.28626716 0.33718643 0.2630642 0.41985023 -0.049005773 -0.050449308 -0.10670949 -0.0716199
0.2342751 0.41565123 -0.34021813 -0.12622689 -0.017572084 0.64408696 -0.06961578 -0.08021074
-0.055137325 0.3340459 0.13180374 -0.1187868 -0.19107287 0.27870518 -0.19830135 0.20171121
-0.0363648 0.4366045 -0.14384417 -0.15060733 -0.07498137 -0.07370162 -0.103308626 0.07782541
-0.25853676 -0.08364259 -0.1227175 -0.15184514 -0.12426271 -0.26290396 0.07881759 -0.11144862
-0.1359497 0.13031732 -0.082606405 -0.071820825 -0.17775212 -0.07925244 -0.052199226 -0.04955365
-0.15891555 0.50115573 0.20381953 0.15365675 0.26012003 -0.20992944 -0.1289989 -0.12905438
0.39144164 -0.1961039 -0.0853058 0.13152279 0.16456226 -0.16047776 -0.08662562 0.22044627
-0.056155022 0.40000936 -0.056647442 -0.1445244 0.28823212 -0.14179765 -0.010542868 0.106417984
0.12582335 0.38023132 0.3939546 -0.113900915 0.22119388 0.27276683 -0.042467427 0.34924963
0.1632727 0.30146775 0.31593794 0.219928 -0.17765166 -0.33670786 0.27359712 -0.28862348
0.17515661 0.19938353 0.39546752 -0.096048586 0.27328148 -0.23328622 -0.15914649 -0.16884696
-0.10106322 -0.07848794 0.36109063 0.13481492 0.22502142 -0.15111688 0.12376961 0.20755813
0.12250505 0.2784442 -0.20773198 0.20017551 0.10730562 0.5130282 0.44859794 0.218257
0.23583935 -0.1504637 0.33024672 0.14620031 0.12160099 -0.04553632 0.3356103 -0.19750308
0.26505095 -0.21130936 0.15849546 0.30933285 0.1639989 -0.1304454 -0.123229116 -0.14730744
-0.2077295 0.3340851 0.14794475 0.16179927 -0.11867641 0.23747219 0.1276239 -0.10546224
-0.15114728 0.22815657 0.5545297 0.31934452 -0.0557422 -0.112326324 0.23239489 0.20788604
-0.18442969 -0.05454696 -0.13328765 -0.18942389 -0.08424572 0.19747429 0.14170356 -0.16017912
0.6370444 -0.15176058 0.5247118 -0.09848522 -0.15302187 0.7102082 -0.2074871 0.19893104
-0.094808236 -0.06056295 0.3861046 -0.19490923 0.2583654 -0.1085031 -0.02245776 -0.18343228
