codes/c_GCN_NPEC/record/0721_18_44/weight/pretrain/checkpoints_epoch_96_classification_decoder.pth (torch, 529793 bytes, 5 tensors)

MLP.0.weight f4 [256, 256]
0	0xbe81c0f3	-0.2534252
1	0x3e1c0956	0.15237936
2	0x3dc4637e	0.09589289
3	0xbdabe8e3	-0.08394029
4	0x3c7c2a43	0.015390935
5	0xbc33a2c6	-0.010964101
6	0xbe48fdec	-0.19628114
7	0x3a974033	0.0011539519
8	0x3d87efb7	0.06637519
9	0xbd82a1ca	-0.06378515
10	0x3d7f02ed	0.06225865
11	0xbcdc3d47	-0.026884688
12	0x3d62ff02	0.055418976
13	0x3e2f2e90	0.17107606
14	0x3e6d6f9d	0.23187108
15	0x3e56a83e	0.20962617
16	0x3cf2411b	0.02957206
17	0x3d03e97e	0.032205097
18	0xbe5f1ca7	-0.21788274
19	0xbe1bf4bd	-0.15230079
20	0x3ccd77ae	0.025081482
21	0xbdedc009	-0.116088934
22	0xbccbbe42	-0.024870995
23	0xbcaf331a	-0.021386672
24	0xbdd3c100	-0.10339546
25	0xbdaa1427	-0.08304625
26	0xbd912a92	-0.07088198
27	0x3cc6d848	0.024273053
28	0x3d4c0eb6	0.049818717
29	0xbda43cf8	-0.08019441
30	0x3e852bb3	0.26009902
31	0x3e0d3902	0.13791278
32	0x3d9688c4	0.07350305
33	0x3d22119f	0.039567586
34	0x3e7f694e	0.24942514
35	0x3ea476e8	0.32121968
36	0x3da51ef9	0.08062548
37	0x3bc32b38	0.00595608
38	0xbd435e89	-0.047697578
39	0x3da5aeb2	0.08089961
40	0xbdf04608	-0.117321074
41	0x3dbf1a40	0.09331179
42	0xbd10d3a0	-0.03535807
43	0x3e3cb2b3	0.18427543
44	0xbe21304c	-0.1574108
45	0x3d134af4	0.035960153
46	0xbe9a4b94	-0.30135787
47	0xbd864a5c	-0.06557152
48	0x3d57b17c	0.052659497
49	0x3e5778a6	0.21042117
50	0x3dfac1ac	0.12243971
51	0x3d0bc35b	0.034121852
52	0x3d208c44	0.039196268
53	0xbce09860	-0.027416408
54	0xbbd7cdf0	-0.006585829
55	0x3dff4752	0.12464775
56	0x3dd01a02	0.101612106
57	0xbe935ffe	-0.28784174
58	0xbdc63b2d	-0.09679256
59	0x3e072145	0.13196285
60	0x3de875dc	0.11350605
61	0x3d9aac18	0.075523555
62	0xbdbf57ed	-0.093429424
63	0x3e6afba2	0.22947553
64	0x3e8f418a	0.2797969
65	0x3dfe833c	0.12427375
66	0xbe11aadc	-0.14225334
67	0x3dc23e74	0.09484568
68	0xbd5e1c96	-0.05422648
69	0x3d3784fb	0.044804554
70	0x3dbe42d6	0.09290092
71	0x3c22ec49	0.00994403
72	0x3b392493	0.002825056
73	0xbcfdc168	-0.030976012
74	0xbdce9d82	-0.10088636
75	0x3e5a6392	0.21327046
76	0x3ce30d6e	0.027716365
77	0x3e5e8c72	0.21733263
78	0x3d0f3f47	0.034972455
79	0x3d637a4e	0.05553656
80	0xbd31a52c	-0.04337041
81	0xbe2a5f35	-0.16637881
82	0xbe2ca174	-0.16858464
83	0xbd8e0528	-0.06934577
84	0x3dd3d471	0.10343254
85	0x3e0e3ed3	0.13891153
86	0xbd5015a2	-0.05080188
87	0xbe2f6fad	-0.17132445
88	0xbe8a5ebf	-0.2702541
89	0x3e3da4c6	0.18519887
90	0xbc1e371e	-0.009656696
91	0xbdb9ff5f	-0.09081911
92	0xbd322387	-0.043490913
93	0xbd49b265	-0.049242396
94	0xbe9b0e95	-0.30284563
95	0xbe051360	-0.12995672
96	0x3dcf5368	0.1012333
97	0x3e397394	0.18110496
98	0x3d9b7792	0.075911656
99	0xbd8073b6	-0.0627207
100	0x3d7295cd	0.059224892
101	0x3cdedb73	0.02720425
102	0xbdf30c34	-0.11867562
103	0xbdc6cfef	-0.09707629
104	0x3b76f55f	0.0037682874
105	0x3e26a6d3	0.16274576
106	0x3e5fbf93	0.21850424
107	0xbddd6e31	-0.10812033
108	0x3d7b47ce	0.061347775
109	0x3d23f10f	0.040024813
110	0xbe243cf6	-0.1603888
111	0x3d281bac	0.041042015
112	0x3d85509e	0.06509517
113	0xbbf4b2c0	-0.0074675977
114	0xbdb4de0b	-0.08831414
115	0xbb614957	-0.003437599
116	0xbd12b58c	-0.035817668
117	0x3cb8b678	0.022547945
118	0xbe044625	-0.12917383
119	0xbe5f8d3c	-0.2183122
120	0x3db37772	0.08763017
121	0xbdc33e64	-0.095333844
122	0x3db4b602	0.08823778
123	0xbd4b9fd0	-0.049712956
124	0xbe376b15	-0.17911942
125	0x3d6d9ec0	0.058012724
126	0x3d94fb07	0.07274442
127	0xbd581a9c	-0.05275975
128	0x3d572ded	0.052534033
129	0xbdfe7c96	-0.12426107
130	0x3cca0a16	0.024663012
131	0x3e1493f6	0.14509568
132	0x3d7fd43d	0.062458266
133	0xbe7cb0f2	-0.24676874
134	0x3dbb414d	0.091433145
135	0xbdb4211c	-0.087953776
136	0xbe806c99	-0.25082853
137	0x3e75fef9	0.24023046
138	0x3e7b70ae	0.24554703
139	0x3da75659	0.081707664
140	0xbc335d71	-0.010947571
141	0x3cc759d1	0.02433482
142	0x3ca71a1e	0.020398196
143	0x3ca998e2	0.020702783
144	0x3e9b8726	0.30376548
145	0x3e1afca0	0.15135431
146	0x3db95183	0.0904875
147	0xbded77de	-0.115951285
148	0xbd97a846	-0.074051425
149	0xbd80474e	-0.062636
150	0x3d97525d	0.073887564
151	0xbe6d6c42	-0.23185828
152	0xbdc93f74	-0.09826556
153	0x3e94b894	0.29047072
154	0x3e03c116	0.12866625
155	0xbe008feb	-0.125549
156	0xbe4dbfba	-0.20092669
157	0x3c2ea2b1	0.010658906
158	0x3cce976d	0.02521869
159	0xbe0b3642	-0.13594916
160	0xbda8e3cd	-0.082465746
161	0x3c0e9713	0.008703011
162	0x3e3fb8f9	0.18722905
163	0x3e062962	0.13101724
164	0xbe04f91d	-0.12985654
165	0x3e0b6cd1	0.13615729
166	0xbdb87af6	-0.09007828
167	0x3db683a0	0.08911824
168	0xbda1b62a	-0.07896073
169	0xbe350174	-0.17676336
170	0xbe10dc94	-0.14146644
171	0xbe2dd18d	-0.16974469
172	0x3dd13c05	0.10216526
173	0x3da6f73d	0.08152626
174	0x3d291634	0.04128094
175	0xbdb95380	-0.090491295
176	0xbcfef860	-0.031124294
177	0x3cdd336f	0.027002065
178	0x3d2839c0	0.0410707
179	0xbdba6db2	-0.09102954
180	0xbd73790d	-0.059441615
181	0xbdbfa327	-0.09357291
182	0xbe37b1c7	-0.1793891
183	0x3c37c618	0.011216663
184	0x3d544d69	0.051831637
185	0x3d93430a	0.07190521
186	0x3e0899cf	0.13339923
187	0x3dcb0ff4	0.09915152
188	0x3e275b95	0.1634353
189	0x3e33bd3f	0.1755266
190	0x3dcd1a64	0.10014799
191	0xbef6db9b	-0.4821442
192	0xbcee3312	-0.029077087
193	0xb93eb754	-0.00018188107
194	0x3d19caa5	0.037546773
195	0xbe3e1cc8	-0.18565667
196	0xbcf16f8c	-0.029472135
197	0xbe000227	-0.12500821
198	0x3d48efbe	0.04905676
199	0xbdd7c3ea	-0.105354145
200	0x3dbff876	0.09373562
201	0x3c8d5877	0.017254097
202	0xbdcfbfc7	-0.101440005
203	0x3e0541ac	0.13013333
204	0xbe6491a5	-0.22321184
205	0x3e895b35	0.26827398
206	0xbca8061e	-0.02051073
207	0x3e56f0a2	0.20990232
208	0x3e3a4721	0.18191196
209	0x3e02da6f	0.12778638
210	0xbd0bb16a	-0.034104742
211	0x3ca60e5f	0.020270525
212	0xbe56789c	-0.20944446
213	0xbdacfcde	-0.08446668
214	0x3e067a99	0.13132705
215	0x3e0bec0a	0.1366426
216	0xbc53b085	-0.0129205035
217	0x3d064c0e	0.032787375
218	0xbc9e3665	-0.019313047
219	0xbe3e1c5e	-0.18565509
220	0x3da3913a	0.07986684
221	0x3db23b69	0.08702738
222	0x3c06aeb7	0.008220366
223	0x3cd9d0a1	0.02658874
224	0x3df60a31	0.120136626
225	0x3d9331cd	0.07187233
226	0xbd2a8493	-0.04163034
227	0xbe346a32	-0.17618635
228	0xbcafd5b0	-0.021464199
229	0x3d956113	0.07293906
230	0xbcc85244	-0.02445329
231	0x3cde5492	0.027139936
232	0xbd270aeb	-0.040781897
233	0xbcf9482b	-0.03042992
234	0x3e73cd02	0.23808673
235	0x3dd9d0e5	0.106355466
236	0xbe78fb45	-0.24314602
237	0xbe2d0431	-0.1689613
238	0x3d90806f	0.07055747
239	0x3d829b5b	0.06377288
240	0x3e57fb70	0.2109201
241	0x3e3ea1cd	0.1861641
242	0xbdbbce9d	-0.09170268
243	0x3d3df2cd	0.04637413
244	0xbda44ee5	-0.080228604
245	0xbdc91b7c	-0.09819695
246	0x3d6827c1	0.056678537
247	0xbe4393d6	-0.19099364
248	0x3def972a	0.11698754
249	0xbcb6fb53	-0.022336638
250	0xbe530f97	-0.20611416
251	0xbd79a607	-0.06094935
252	0xbc0594f9	-0.008153194
253	0xbe689377	-0.22712503
254	0x3de5467e	0.11195086
255	0xb9e4b730	-0.00043624034

MLP.0.bias f4 [256]
0	0xbe2cbd63	-0.1686912
1	0xbdde0a42	-0.108418
2	0xbdb03451	-0.086037286
3	0xbe1c2a71	-0.15250565
4	0xbd6d0d83	-0.057874214
5	0xbe0f8181	-0.14014246
6	0xbd092d9c	-0.033490762
7	0xbe3a0db4	-0.1816929
8	0xbe43a3c0	-0.19105434
9	0xbe612a19	-0.21988715
10	0xbe0cb605	-0.1374131
11	0xbe340389	-0.17579474
12	0xbe0158e9	-0.12631573
13	0xbe162091	-0.1466086
14	0xbe196708	-0.1498071
15	0xbdba6df6	-0.09103005
16	0xbd8c4d0e	-0.068506345
17	0xbe03e215	-0.12879212
18	0xbdd22aaa	-0.10262044
19	0xbe1d2c9a	-0.15349045
20	0xbe51fd03	-0.20506673
21	0xbdccf5fc	-0.10007855
22	0xbe071bd0	-0.13194203
23	0xbddcb58a	-0.10776813
24	0xbdd8f4d8	-0.10593575
25	0xbdaf88a7	-0.08570986
26	0xbdfa9dc8	-0.12237126
27	0xbe6b01ff	-0.2294998
28	0xbe34f18a	-0.17670265
29	0xbd83cdcb	-0.06435736
30	0xbd8f25f1	-0.069896586
31	0xbd0eb58f	-0.034841117
32	0xbda7e04e	-0.081970796
33	0xbdf12250	-0.11774123
34	0xbd6da699	-0.058020208
35	0xbe6fe993	-0.23428945
36	0xbe702743	-0.23452477
37	0xbda584f3	-0.08081999
38	0xbdb3d8fe	-0.08781622
39	0xbdd2b0c0	-0.10287619
40	0xbe418a71	-0.18900467
41	0xbe002db0	-0.12517428
42	0xbe073952	-0.1320546
43	0xbd99b6e8	-0.0750559
44	0xbda85279	-0.082188554
45	0xbe058872	-0.13040331
46	0xbe1ee910	-0.15518594
47	0xbdb72c00	-0.08943939
48	0xbe1cdc22	-0.15318349
49	0xbe2bde94	-0.16784126
50	0xbe8c675b	-0.27422604
51	0xbe2e9743	-0.1704989
52	0xbe00cf3d	-0.12579055
53	0xbe306fff	-0.17230223
54	0xbda900f9	-0.08252139
55	0xbe33a935	-0.17545016
56	0xbe441ec8	-0.19152367
57	0xbea447fc	-0.3208617
58	0xbe64be57	-0.22338234
59	0xbd613b7d	-0.054988373
60	0xbe1b367c	-0.15157503
61	0xbe0ed220	-0.13947344
62	0xbe0a9885	-0.13534744
63	0xbdd9638a	-0.10614689
64	0xbe0b9d43	-0.1363421
65	0xbe0dc966	-0.13846359
66	0xbde57abf	-0.112050526
67	0xbda67800	-0.08128357
68	0xbe323165	-0.17401655
69	0xbe0d38c8	-0.13791192
70	0xbd770995	-0.060311873
71	0xbe06505c	-0.13116592
72	0xbe29f7fe	-0.16598508
73	0xbd7e2dbc	-0.062055334
74	0xbe0a40a0	-0.13501215
75	0xbd70500d	-0.058670092
76	0xbd18eca8	-0.037335068
77	0xbe1ef617	-0.15523563
78	0xbdd66b1b	-0.104696475
79	0xbe3c862e	-0.1841056
80	0xbe0e52ba	-0.13898745
81	0xbdcb984d	-0.099411584
82	0xbe59b251	-0.21259429
83	0xbe4245be	-0.18971917
84	0xbeb2a7cf	-0.34893653
85	0xbdcebd59	-0.10094709
86	0x3d11c433	0.0355875
87	0xbe6fabec	-0.23405427
88	0xbe2362bb	-0.15955631
89	0xbd98e6d5	-0.07465903
90	0xbe31d79c	-0.17367405
91	0xbea88327	-0.3291256
92	0xbe50c3b7	-0.2038716
93	0xbdb6f57a	-0.0893354
94	0xbe3bf47e	-0.18354985
95	0xbe486e0e	-0.19573233
96	0xbe70adf9	-0.23503865
97	0xbd33c38d	-0.043887664
98	0xbe13403c	-0.14379972
99	0x3a0b0405	0.0005303028
100	0xbe677f80	-0.22607231
101	0xbe51554a	-0.20442691
102	0xbdc251d5	-0.094882645
103	0xbe38f1fd	-0.18061061
104	0xbe237ebe	-0.15966317
105	0xbd77865d	-0.060430873
106	0xbe744c26	-0.23857173
107	0xbdb9accb	-0.09066161
108	0xbd6609bf	-0.05616164
109	0xbd607c0d	-0.054805804
110	0xbe17a925	-0.14810617
111	0xbe4ff1cc	-0.20307082
112	0xbe0208e3	-0.12698703
113	0x3c2c28c2	0.010507764
114	0xbdfb77ab	-0.12278684
115	0xbe06fe13	-0.13182859
116	0xbdc7e25c	-0.097599715
117	0xbdf84906	-0.12123303
118	0xbc97c03f	-0.018524287
119	0xbe3614b1	-0.1778133
120	0xbd38b50b	-0.04509453
121	0xbe602dda	-0.21892491
122	0xbe2daca2	-0.16960385
123	0xbe68c2d5	-0.22730573
124	0xbde8ee3d	-0.11373565
125	0xbe82f6a4	-0.25578797
126	0xbe72cb4f	-0.23710369
127	0xbcfb4b7d	-0.030675644
128	0xbda89887	-0.08232217
129	0xbde287a2	-0.11061026
130	0xbdb2125c	-0.08694908
131	0xbe8d7b21	-0.27633002
132	0xbdf225a5	-0.118235864
133	0xbe05e1ef	-0.13074468
134	0xbddd26b8	-0.10798401
135	0xbeac3d68	-0.336406
136	0xbd8d92ab	-0.0691274
137	0xbe3cff21	-0.18456699
138	0xbd4a7009	-0.04942325
139	0xbd9847c3	-0.074355625
140	0xbe04db47	-0.12974273
141	0xbd99d01a	-0.07510395
142	0xbe17ca92	-0.14823368
143	0xbe89d07c	-0.26916873
144	0xbe11382d	-0.14181586
145	0xbdbc564a	-0.09196146
146	0xbe4c3430	-0.19941783
147	0xbe3e1c11	-0.18565394
148	0xbd66e146	-0.05636718
149	0xbdae0cf9	-0.08498568
150	0xbda10cbc	-0.07863757
151	0xbbec8f5e	-0.007219239
152	0xbe3da0a6	-0.18518314
153	0xbe06cf75	-0.13165076
154	0xbccd4b80	-0.025060415
155	0xbe059b23	-0.13047461
156	0xbe7faa75	-0.24967368
157	0xbe232093	-0.15930395
158	0xbe68ecf9	-0.22746648
159	0xbd9f66b5	-0.07783262
160	0xbe23f3ba	-0.16010943
161	0xbdba5cca	-0.09099729
162	0xbde33d52	-0.1109568
163	0xbe9317fd	-0.2872924
164	0xbe52a8a7	-0.20572148
165	0xbe0be347	-0.13660918
166	0xbe35f4e8	-0.17769206
167	0xbe3013c0	-0.17195034
168	0xbe032562	-0.12807229
169	0xbd7fde75	-0.06246801
170	0xbde72adc	-0.11287472
171	0xbd81573a	-0.06315465
172	0xbd9c54e0	-0.07633376
173	0xbe1749a0	-0.1477418
174	0xbdddbc99	-0.10826988
175	0xbda557d5	-0.08073393
176	0xbe5237e5	-0.20529135
177	0xbcc9984f	-0.02460876
178	0x3c697169	0.0142482305
179	0xbdd8b4fd	-0.10581396
180	0xbd123f07	-0.03570464
181	0xbe4b596f	-0.19858335
182	0xbdb2056f	-0.086924426
183	0xbe72c632	-0.23708418
184	0xbdb5c9cb	-0.088763796
185	0xbe0d10c0	-0.13775921
186	0xbe0c7512	-0.13716534
187	0xbde33efb	-0.11095997
188	0xbda74603	-0.081676506
189	0xbea303f1	-0.31838945
190	0xbe10efb6	-0.14153942
191	0xbd317597	-0.043325033
192	0xbd7f8a95	-0.06238802
193	0xbe068b26	-0.13139018
194	0x3cc39d26	0.023878645
195	0xbe163a6f	-0.14670728
196	0xbe55275d	-0.20815797
197	0xbe73b1eb	-0.23798339
198	0xbe5a357b	-0.21309464
199	0xbe0954a0	-0.13411188
200	0xbd9cfde4	-0.07665613
201	0xbe32fecf	-0.17480014
202	0xbe55ce0b	-0.2087938
203	0xbce39c2b	-0.027784428
204	0xbddb4632	-0.10706748
205	0xbdcd860e	-0.100353345
206	0xbe2306fd	-0.15920635
207	0xbe2b3de0	-0.16722822
208	0xbd8b34fb	-0.067972146
209	0xbdd77870	-0.105210185
210	0xbdc5b25a	-0.096531585
211	0xbdc59409	-0.09647376
212	0xbdd1c23f	-0.102421276
213	0xbe0cb0c6	-0.13739309
214	0xbe304df1	-0.17217232
215	0xbe103eaa	-0.14086404
216	0xbdc2e8cb	-0.09517058
217	0xbdbe73da	-0.09299441
218	0xbd9e8ce7	-0.07741719
219	0xbe19f02c	-0.15033025
220	0xbe1fcca8	-0.15605414
221	0xbe885ca5	-0.26633182
222	0xbddf5a6e	-0.1090592
223	0xbde7a75c	-0.11311218
224	0xbe2b5bd4	-0.16734248
225	0x3d25c192	0.040467806
226	0xbe3196ac	-0.17342633
227	0xbe1e61dc	-0.15467018
228	0xbd8df304	-0.06931117
229	0xbdf13e85	-0.11779503
230	0xbe6f6566	-0.23378524
231	0xbde2b76c	-0.11070141
232	0xbe78a93f	-0.24283312
233	0xbd47d0f3	-0.048783254
234	0xbdf1d004	-0.11807254
235	0xbdf022b1	-0.11725367
236	0xbe28b46f	-0.1647508
237	0xbd932c90	-0.07186234
238	0xbe06bd9a	-0.13158265
239	0xbdb3d063	-0.08779981
240	0xbe3856ee	-0.18001911
241	0xbde1dfac	-0.1102899
242	0xbe2ded36	-0.1698502
243	0xbe4da068	-0.20080721
244	0xbe38c449	-0.18043627
245	0xbde2c8c3	-0.110734485
246	0xbd508f0a	-0.050917663
247	0xbdcbba7d	-0.09947679
248	0xbe668866	-0.2251297
249	0xbe0bf6bf	-0.13668345
250	0xbe37bcb7	-0.17943083
251	0xbc838cde	-0.016058382
252	0xbe86bfc2	-0.26318175
253	0xbe337257	-0.17524086
254	0xbe604939	-0.21902932
255	0xbd4fca7c	-0.050730214

MLP.2.weight f4 [256, 256]
0	0xbe1e8610	-0.15480828
1	0x3e39ba54	0.18137485
2	0xbe4c6d0b	-0.19963472
3	0xbe0082a1	-0.12549831
4	0x3dfd205c	0.12359688
5	0x3e39ed9f	0.18157052
6	0x3e5ba1a2	0.21448377
7	0x3d82ce68	0.06387025
8	0x3e3a8483	0.18214612
9	0x3cdf7a09	0.02727987
10	0xbd4953a9	-0.04915205
11	0x3d5c0e19	0.053724382
12	0x3d149816	0.036277853
13	0x3e0159c8	0.12631905
14	0x3d0dbc49	0.03460339
15	0xbb1918ba	-0.0023360685
16	0xbdf0b95b	-0.11754104
17	0xbd2f5206	-0.042802833
18	0xbd9294a4	-0.07157257
19	0xbd977134	-0.07394639
20	0x3df9f6c8	0.12205273
21	0x3e055a16	0.13022646
22	0xbe3cb556	-0.18428549
23	0xbdb61748	-0.08891159
24	0xbe0f72e6	-0.14008674
25	0xbd36ae4a	-0.04459981
26	0xbe927ec5	-0.28612342
27	0x3ea70d1c	0.3262719
28	0x3e9288b1	0.28619912
29	0x3e3ef381	0.18647577
30	0xbbb53097	-0.005529474
31	0xbcf6fa5e	-0.030148681
32	0xbbf6a557	-0.0075270343
33	0xbd8840dd	-0.06652997
34	0x3c5036bc	0.012708362
35	0xbdb2611c	-0.087099284
36	0xbd7fb871	-0.062431756
37	0x3c202860	0.009775251
38	0xbccabe6b	-0.024749001
39	0xbd649720	-0.055808187
40	0xbe13cc11	-0.14433314
41	0xbe962fe7	-0.29333422
42	0x3dcac085	0.099000014
43	0xbeb6eb82	-0.35726553
44	0x3be87bc1	0.0070948307
45	0xbe2e344a	-0.17012134
46	0xbe9483f7	-0.2900693
47	0xbdfc7712	-0.12327398
48	0xbd1805fb	-0.03711508
49	0x3d57d5bb	0.052694064
50	0xbe24e97d	-0.16104694
51	0xbd848cab	-0.06472143
52	0xbe17d6e5	-0.1482807
53	0xbd9ab65f	-0.07554316
54	0x3e418c6d	0.18901224
55	0xbe48b670	-0.19600844
56	0xbe3ea066	-0.18615875
57	0x3d6094a0	0.05482924
58	0xbda551cc	-0.08072242
59	0x3ea54a99	0.32283476
60	0x3d8e763b	0.069561444
61	0x3e334d02	0.17509845
62	0x3daa2a6f	0.08308875
63	0x3e2f0ddf	0.17095135
64	0x3d8ae0a4	0.06781128
65	0x3c8b6700	0.017016888
66	0xbe4b1877	-0.19833551
67	0x3df941f8	0.12170786
68	0xbe83f87f	-0.25775525
69	0x3dcb4acc	0.09926376
70	0xbe6de121	-0.23230411
71	0x3d200acb	0.039072793
72	0x3a06b430	0.00051385444
73	0xbd45d4ac	-0.048298523
74	0x3d3e9b1c	0.046534643
75	0x3d98e70b	0.07465943
76	0x3d1a8894	0.037727907
77	0x3e36199d	0.17783208
78	0x3db61354	0.08890405
79	0x3d56491e	0.052315824
80	0x3dd867d7	0.10566681
81	0xbdf102dc	-0.117681235
82	0xbc3a1b9f	-0.011359124
83	0xbc56aa20	-0.013102084
84	0xbd8cece9	-0.068811245
85	0xbec98019	-0.39355543
86	0xbbd332ae	-0.0064452505
87	0xbd8d2047	-0.06890922
88	0xbe29c3fb	-0.16578667
89	0xbdb41cc8	-0.08794552
90	0x3bbf48d3	0.0058375387
91	0x3d079e04	0.03310968
92	0x3c63a911	0.013895289
93	0xbe244198	-0.16040647
94	0x3d4023d8	0.046909183
95	0xbe0fc84d	-0.14041252
96	0x3dc5468b	0.09632596
97	0x3dd8d224	0.10586956
98	0x3e3a4906	0.18191919
99	0xbe5d9bfb	-0.21641533
100	0xbd59cf8b	-0.053176444
101	0xbdf8c990	-0.1214782
102	0x3e07c511	0.13258769
103	0x3dde7a2a	0.10863145
104	0xbdc92e29	-0.098232575
105	0xbe84819d	-0.25880137
106	0xbec93484	-0.3929788
107	0x3d1e10ad	0.038590122
108	0x3d5c7ee6	0.053831957
109	0x3da8f68e	0.082501516
110	0x3bb14159	0.0054094014
111	0x3e42f5e0	0.19039106
112	0xbdacf109	-0.08444411
113	0x3ded6d75	0.11593143
114	0x3dddee8c	0.10836515
115	0x3d2a7080	0.041611195
116	0xbd76dcf9	-0.06026933
117	0x3d65b347	0.056079175
118	0x3e15e050	0.1463635
119	0x3cd4d262	0.025979225
120	0xbe1ae095	-0.15124734
121	0xbd1e443a	-0.038639285
122	0x3e5028db	0.20328085
123	0xbe3e0bdb	-0.1855921
124	0x3e67d029	0.22638
125	0x3d89e09b	0.06732293
126	0xbdb11265	-0.086460866
127	0x3e7d81a6	0.24756488
128	0x3e855ef7	0.26049015
129	0xbe3ffa91	-0.18747927
130	0x3e100dd1	0.1406777
131	0x3e94368c	0.28947866
132	0xbde91e7e	-0.11382769
133	0xbe259dff	-0.16173552
134	0x3e5a95aa	0.21346155
135	0xbe2c6af9	-0.16837682
136	0x3d0fabc6	0.035075925
137	0x3db895da	0.09012957
138	0x3dc08bb8	0.09401649
139	0x3e8cdbab	0.27511343
140	0x3dc64dff	0.09682845
141	0xbcb5ae20	-0.022177756
142	0xbe49e43b	-0.1971597
143	0x3da4455e	0.08021043
144	0xbf0413ca	-0.51592696
145	0x3e03887c	0.12845033
146	0xbe2aa491	-0.1666434
147	0xbd8ae5da	-0.06782122
148	0x3dbe79f7	0.09300607
149	0xbda8744e	-0.08225308
150	0x3cb4d816	0.022075694
151	0x3d1282b7	0.03576919
152	0xbe8f2ff7	-0.27966282
153	0x3db2f3ed	0.087379314
154	0x3d1e3708	0.0386267
155	0x3d0b57f7	0.034019437
156	0x3e0e8c7a	0.13920775
157	0xbe511a2a	-0.20420137
158	0x3da1ab18	0.07893962
159	0xbefd0a6a	-0.49422008
160	0xbdc9c7bf	-0.09852552
161	0xbe23f748	-0.16012299
162	0xbe11e3e6	-0.14247093
163	0xbe8cda37	-0.27510235
164	0xbd065ab7	-0.032801356
165	0xbe0c44d1	-0.13698126
166	0xbe0edc86	-0.1395131
167	0x3e22a86b	0.15884559
168	0xbec544a8	-0.38528943
169	0xbd6dc847	-0.058052327
170	0xbef90e0b	-0.48643526
171	0xbe1bad52	-0.15202835
172	0x3ced9217	0.029000325
173	0xbd4c47a8	-0.049873024
174	0xbe038ff7	-0.12847887
175	0x3d445887	0.04793599
176	0x3d3dae55	0.046308834
177	0xbe89bce8	-0.26901937
178	0xbe02d054	-0.12774783
179	0x3e004e7c	0.1252994
180	0xbd196c48	-0.03745678
181	0xbdf04133	-0.11731186
182	0xbd4c0847	-0.04981258
183	0xbedb62ab	-0.42848715
184	0x3df4c218	0.11951083
185	0x3dc54250	0.09631789
186	0x3da306ed	0.07960305
187	0x3dd15219	0.10220737
188	0xbd944c89	-0.072411604
189	0xbeb3bc04	-0.35104382
190	0xbd999b2d	-0.075003006
191	0x3db2af5b	0.08724853
192	0x3e469789	0.19393744
193	0xbe98f6c9	-0.29875782
194	0x3d5189be	0.05115675
195	0x3d7682c6	0.06018331
196	0x3d2306e6	0.0398015
197	0x3dbe43e9	0.092902966
198	0x3db24834	0.08705178
199	0xbd460809	-0.048347507
200	0xbd87f6f9	-0.06638903
201	0xbe7a88b7	-0.24466215
202	0xbea36dfe	-0.31919855
203	0xbe03aa0e	-0.1285784
204	0xbdfc1a09	-0.12309653
205	0x3e018215	0.12647279
206	0x3d30f09f	0.043198224
207	0x3ded500c	0.11587533
208	0x3db5f852	0.08885254
209	0xbd5bf1aa	-0.053697266
210	0x3e327ed2	0.1743119
211	0x3e0a4d96	0.13506159
212	0xbde9ad5e	-0.1141002
213	0xbe8a0c5a	-0.26962548
214	0xbd9e7ad3	-0.077382706
215	0xbca27a9f	-0.01983386
216	0xbd1f14a1	-0.038838033
217	0x3dbeda6f	0.09319007
218	0x3e826872	0.2547031
219	0xbe7008cb	-0.23440854
220	0x3d1d946b	0.03847162
221	0xbe1ae644	-0.15126902
222	0xbeb25a0a	-0.3483432
223	0xbd1ce54f	-0.038304623
224	0x3e020ba6	0.12699756
225	0x3d071b4d	0.03298502
226	0xbdacf32d	-0.084448196
227	0x3e7ee9aa	0.24893823
228	0xbdcc497b	-0.09974953
229	0x3cdcc89f	0.026951132
230	0xbe6be6b1	-0.2303722
231	0xbcf01217	-0.0293055
232	0x3e667f86	0.22509584
233	0xbdac2f93	-0.084075116
234	0xbac1b09f	-0.0014777369
235	0x3e04d64e	0.12972376
236	0x3cc0f147	0.02355255
237	0xbd9bdd95	-0.07610623
238	0xbe9dcf71	-0.30822328
239	0xbe240c34	-0.1602028
240	0x3d8f5157	0.06997936
241	0xbd916e2d	-0.071010925
242	0x3dae705e	0.08517526
243	0x3e5c8b34	0.21537477
244	0xbd55bbe9	-0.05218116
245	0xbce0fe83	-0.02746511
246	0x3e277f2d	0.16357107
247	0xbdeb9ced	-0.115045406
248	0xbec999c7	-0.39375135
249	0xbf12ff0b	-0.57420415
250	0x3e25c9c3	0.16190247
251	0x3de3d74e	0.111250505
252	0xbe69b8f9	-0.22824468
253	0xbbcb7280	-0.006208718
254	0xbe5a4958	-0.21317041
255	0xbcf7b909	-0.030239599

MLP.2.bias f4 [256]
0	0xbd87f3d9	-0.06638307
1	0xbd9427d3	-0.07234158
2	0xbe00ecb0	-0.12590289
3	0xbd562809	-0.052284274
4	0xbbb69f6d	-0.0055732043
5	0x3dd0034c	0.10156879
6	0xbde7f71b	-0.113264285
7	0xbcd2160b	-0.025645277
8	0xbdc95706	-0.098310515
9	0xbca19fac	-0.019729458
10	0x3e0aff8a	0.13574043
11	0xbd935b34	-0.0719513
12	0x3d2a60cf	0.04159623
13	0xbdcda1ec	-0.1004065
14	0xbc7f8e12	-0.015597837
15	0xbd83c065	-0.06433181
16	0x3c97c8c2	0.018528346
17	0x3baca245	0.0052683675
18	0x3cec4a6d	0.028844083
19	0x3cd1eaf0	0.025624722
20	0xbdeafa9a	-0.1147358
21	0xbe0dc76c	-0.13845605
22	0xbca525c8	-0.020159617
23	0xbe1db64b	-0.1540157
24	0xbe2ed812	-0.17074612
25	0xbe21b336	-0.1579102
26	0xbc44ae1a	-0.0120044
27	0xbdf33426	-0.11875181
28	0xbcdf918e	-0.027291086
29	0x3dae25d2	0.085033074
30	0xbd2ae550	-0.041722596
31	0x3c011380	0.007878184
32	0xbd8a9b83	-0.06767943
33	0xbdde956b	-0.10868343
34	0xbdc5125a	-0.09622641
35	0xbdac4025	-0.08410672
36	0xbe1d498d	-0.15360089
37	0xbe13cfa8	-0.14434683
38	0x3d87120d	0.0659524
39	0xbdaf7b60	-0.08568454
40	0xbdb3c096	-0.08776967
41	0xbd30e8d7	-0.043190803
42	0x3ce510f6	0.02796219
43	0xbdf55350	-0.11978781
44	0x3d652a29	0.05594841
45	0xbbcd9ccd	-0.0062747956
46	0xbc751380	-0.014958262
47	0x3c713e9e	0.014724402
48	0xbb3c1e19	-0.0028704463
49	0x3cfd5539	0.030924426
50	0xbd59ca97	-0.05317172
51	0xbdfc478a	-0.123183325
52	0xbe34f157	-0.17670189
53	0x3dd1924f	0.10232984
54	0x3d4acfdc	0.049514636
55	0xbbd1249a	-0.006382537
56	0xbc3c9484	-0.011510018
57	0xbd7c168b	-0.061544936
58	0xbd8fe09d	-0.070252635
59	0xbe1d87a6	-0.15383777
60	0xbd8bf6c9	-0.0683418
61	0xbcde79c6	-0.027157675
62	0xbd8cde03	-0.06878283
63	0xbd2f6cae	-0.042828254
64	0xbc942af5	-0.01808689
65	0xbcaa8ddc	-0.020819597
66	0x3c4686f4	0.012117136
67	0xbd9faf1e	-0.07797073
68	0xbe0ada13	-0.13559751
69	0x3d505c3b	0.050869208
70	0xbe0853af	-0.13313173
71	0xbd7e86fc	-0.06214045
72	0x3da7c06a	0.08190997
73	0x3d1728d5	0.036904175
74	0xbddf4fce	-0.109038934
75	0xbc89c9d3	-0.01681987
76	0xbcbbeb0f	-0.022939233
77	0xbd71646d	-0.058933664
78	0x3c1e6002	0.009666445
79	0xbb88bc8f	-0.0041728686
80	0xbdccf12d	-0.10006938
81	0xbdc5e483	-0.09662726
82	0xbd6e5b41	-0.058192495
83	0xbe0bad49	-0.13640322
84	0xbd71e8a5	-0.059059758
85	0x3c834264	0.016022868
86	0xbd7198ff	-0.0589838
87	0xbdaa3e5f	-0.083126776
88	0xbe10059c	-0.1406464
89	0xbd523120	-0.05131638
90	0xbdfbc7b2	-0.12293948
91	0xbde9e54e	-0.114206895
92	0xbcf3a999	-0.029743956
93	0x3d685c13	0.056728434
94	0xbd2f1d3f	-0.0427525
95	0x3a5b1980	0.0008357987
96	0xbd940318	-0.072271526
97	0xbe4d7972	-0.20065859
98	0xbdf849bd	-0.121234395
99	0x3d84f077	0.064911775
100	0x3c760321	0.015015394
101	0xbe5e62cf	-0.2171738
102	0x3c98ccb8	0.018652305
103	0xbdb0c929	-0.08632118
104	0xbd8d1b33	-0.068899535
105	0xbd6e22db	-0.05813871
106	0x3dc30e41	0.09524203
107	0xbdc5d8e4	-0.09660509
108	0x3d34fa15	0.04418381
109	0xbe5f164f	-0.21785854
110	0xbde96300	-0.11395836
111	0xbc5ccd8d	-0.0134767415
112	0xbd56dea9	-0.05245844
113	0xbdc7e210	-0.09759915
114	0xbe1d1ebc	-0.15343755
115	0xbdd2b6cd	-0.10288773
116	0xbde3cde7	-0.11123257
117	0x3c455f38	0.012046628
118	0xbd4a0bbf	-0.04932761
119	0xbd66e101	-0.056366924
120	0xbd9af468	-0.07566148
121	0xbd6b0b19	-0.05738363
122	0xbd8a3144	-0.06747678
123	0xbd04f120	-0.032456517
124	0xb9d1b769	-0.00040000238
125	0xbe56493e	-0.20926377
126	0xbd0a480e	-0.033760123
127	0x3d14d711	0.036337916
128	0xbd36c586	-0.044621967
129	0xbd437a26	-0.04772391
130	0x3c56072d	0.013063234
131	0xbabddc2f	-0.0014485175
132	0xbd833c2c	-0.06407961
133	0xbdc0e40b	-0.09418496
134	0x3cac6716	0.021045249
135	0xbd0c0968	-0.034188658
136	0xbd12b2d1	-0.035815064
137	0x3d0c0214	0.03418167
138	0xbd9c4653	-0.07630601
139	0x3e030315	0.12794144
140	0xbdc18309	-0.09448821
141	0xbe1718df	-0.14755581
142	0xbe106b76	-0.14103493
143	0xbd836408	-0.06415564
144	0xbbcce059	-0.0062523303
145	0xbe177b40	-0.1479311
146	0xbda818a6	-0.08207826
147	0xbb20335c	-0.0024444675
148	0xbe00a98a	-0.12564674
149	0xbe0e940f	-0.13923667
150	0xbd7e7cf4	-0.062130883
151	0xbc6c88cd	-0.014436913
152	0xbdad0bd2	-0.0844952
153	0xbd38593a	-0.045006968
154	0xbc69af6f	-0.014263018
155	0x3c9d720f	0.019219426
156	0xbb4594b7	-0.0030148455
157	0xbce44842	-0.027866486
158	0xbdec5e54	-0.11541429
159	0x3d3f855f	0.046758052
160	0xbd776b58	-0.060405105
161	0x3be27fc1	0.006912202
162	0xbe67852f	-0.226094
163	0xb9cec780	-0.0003944002
164	0xbe2f7bac	-0.17137021
165	0xbdc26e12	-0.094936505
166	0x3d160403	0.03662492
167	0xbe1c6442	-0.1527262
168	0xbcd5aa7c	-0.02608227
169	0xbe351a88	-0.17685902
170	0xbd9d721d	-0.07687781
171	0xbd1ecc49	-0.03876904
172	0xbd51eb9e	-0.051250093
173	0xbdc454ed	-0.09586511
174	0xbd943096	-0.072358295
175	0xbc979d49	-0.018507617
176	0x3d362085	0.044464607
177	0xbdce3b21	-0.10069872
178	0xbbf13b5c	-0.0073618125
179	0x3cebbbf5	0.028776148
180	0xbda41517	-0.08011835
181	0xbdcb998d	-0.09941397
182	0xbad32ac7	-0.0016110771
183	0xbd14661e	-0.0362302
184	0xbc08e034	-0.008354235
185	0x3c4e0cf3	0.0125763295
186	0x3e0c93b2	0.13728216
187	0xbcb1551c	-0.021647029
188	0xbde9cd6a	-0.11416133
189	0xbcdbbfc6	-0.026824843
190	0xbda87414	-0.08225265
191	0x3d4f934b	0.05067758
192	0x3c9a9d6c	0.018873893
193	0xbd734830	-0.059395015
194	0x3dbf597d	0.093432404
195	0xbe09d52b	-0.13460223
196	0x3de2ad94	0.11068264
197	0xbe4abece	-0.19799349
198	0xbb6ea6d3	-0.0036415353
199	0xbe043e93	-0.12914495
200	0xbd489d92	-0.048978396
201	0xbe26d38d	-0.16291638
202	0xbd05ca5e	-0.032663696
203	0xbdad806f	-0.084717624
204	0x3ddd3701	0.10801507
205	0x3bf16aa3	0.0073674484
206	0xbc4da652	-0.012551861
207	0xbd7f37d3	-0.062309097
208	0xbe2b6314	-0.16737014
209	0xbd8078f0	-0.06273067
210	0xbdecac2f	-0.11556279
211	0xbd593ddb	-0.053037506
212	0x3d423f0b	0.047423404
213	0xbda1a47e	-0.078927025
214	0xbd10752c	-0.035267994
215	0xbdc95170	-0.09829986
216	0xbe2b087f	-0.1670246
217	0xbd06b806	-0.032890342
218	0xbdb918bb	-0.0903792
219	0x3d864fa2	0.065581575
220	0xbdfb0968	-0.122576535
221	0xbe53e357	-0.20692192
222	0xbc8feeb3	-0.017569875
223	0xbd923931	-0.07139815
224	0x3cfa90a7	0.030586554
225	0xbdadc04f	-0.084839456
226	0xbde8f1cd	-0.11374245
227	0xbe1d354b	-0.15352361
228	0xbbdc75e2	-0.00672792
229	0x3c7cd451	0.01543148
230	0xbd8e9cc2	-0.06963493
231	0xbd9ac4a1	-0.07557035
232	0x3d112abd	0.03544115
233	0xbd81fdbd	-0.06347225
234	0x3cd50660	0.026004016
235	0x3ce954ca	0.028482813
236	0x3d8d9a29	0.06914169
237	0xbdb7b04d	-0.089691736
238	0x3b45e1ae	0.003019433
239	0xbe5ed8bc	-0.21762365
240	0xbda54327	-0.08069449
241	0xbc16a8c3	-0.009195509
242	0xbe3bc1db	-0.18335669
243	0x3c866cd5	0.016409317
244	0xbdc6e64c	-0.097118944
245	0xbe076228	-0.13221037
246	0xbe49778a	-0.19674507
247	0xbe22018c	-0.15820903
248	0xbd8cc1ee	-0.06872927
249	0x3c898962	0.016789142
250	0xbd9f5d10	-0.07781422
251	0x3dddc118	0.10827845
252	0xbdc16ac4	-0.09444192
253	0xbcbbeac0	-0.022939086
254	0xbcd4e757	-0.025989218
255	0xbe0a4cf2	-0.13505915

MLP.4.weight f4 [1, 256]
0	0x3e9cfbf3	0.30660972
1	0xbd494545	-0.049138326
2	0x3f12682d	0.5719021
3	0x3e4605e9	0.19338192
4	0x3e281c04	0.16416937
5	0xbd79279f	-0.0608288
6	0x3e082433	0.13295059
7	0x3ec24901	0.37946323
8	0xbe5e06b2	-0.21682242
9	0xbdeb5071	-0.11489952
10	0x3e3a7585	0.18208893
11	0x3e72af24	0.23699623
12	0x3ebce8ab	0.36896262
13	0x3edc4724	0.43023026
14	0xbe0a0850	-0.13479733
15	0xbe9cf376	-0.30654496
16	0xbc2ff8c3	-0.010740462
17	0x3dc3d6fc	0.095624894
18	0x3dd14789	0.102187224
19	0xbdb0763d	-0.08616302
20	0x3ec3977d	0.38201514
21	0x3e549b8e	0.20762464
22	0xbe6b27d2	-0.22964409
23	0xbeef0ecd	-0.4669098
24	0x3ebe6ecb	0.37193903
25	0x3ebf4716	0.37358922
26	0xbc5da67c	-0.0135284625
27	0xbe77e0eb	-0.24206893
28	0xbd56d0b8	-0.052445143
29	0x3e4ec4a3	0.20192198
30	0xbea29ea2	-0.31761652
31	0x3e632de3	0.22185473
32	0xbe4dba11	-0.2009051
33	0x3e57da84	0.21079451
34	0x3e719d5b	0.23595183
35	0x3f03ca31	0.51480395
36	0x3e7de4a3	0.24794249
37	0x3eb463da	0.3523243
38	0xbe8a5018	-0.27014232
39	0x3eb23f59	0.34813955
40	0x3ef5251b	0.47879872
41	0xbe4753e6	-0.19465598
42	0x3e1fd759	0.15609492
43	0x3e85e2a1	0.26149467
44	0xbd061a3f	-0.032739874
45	0x3efc789d	0.4931077
46	0xbd7fcf5e	-0.06245362
47	0xbe2f9ed7	-0.17150436
48	0xbd660b1b	-0.056162935
49	0x3e1813eb	0.14851348
50	0xbd658755	-0.056037266
51	0x3ed23149	0.41053227
52	0x3eaec834	0.34137118
53	0xbda0c4c9	-0.07850034
54	0xbe6029d4	-0.21890956
55	0x3e3c18d7	0.1836885
56	0x3ec50f87	0.3848841
57	0xbf462bf8	-0.7741084
58	0xbeba7a2d	-0.36421338
59	0xbec73343	-0.38906297
60	0xbead65dd	-0.33866778
61	0xbe34efa7	-0.17669545
62	0x3f058efd	0.5217131
63	0x3e3c2343	0.18372826
64	0xbe4e528e	-0.2014868
65	0xbda58606	-0.080822036
66	0xbd5fde37	-0.05465528
67	0xbec3ff07	-0.38280508
68	0x3d843e1d	0.0645716
69	0xbd40a329	-0.0470306
70	0xbe80be2b	-0.25145087
71	0xbcf56621	-0.029955925
72	0xbd945248	-0.072422564
73	0x3e961dfc	0.2931975
74	0xbf1e7103	-0.6189119
75	0xbe86952c	-0.26285684
76	0x3efed7fd	0.4977416
77	0x3ed48e93	0.41515025
78	0x3e44ce86	0.19219407
79	0xbd8dc42a	-0.06922181
80	0xbd252352	-0.040316887
81	0x3ea6cdd9	0.32578924
82	0x3ef64d89	0.4810603
83	0x3edf36c6	0.43596476
84	0x3eb78592	0.35844094
85	0x3e8d51e3	0.27601537
86	0x3ebad5ab	0.3649114
87	0xbdb3a656	-0.087719604
88	0xbec3edf9	-0.38267496
89	0x3edc501e	0.43029875
90	0x3ea2baae	0.3178305
91	0x3eecd32e	0.46254867
92	0xbd33748d	-0.043812323
93	0xbd926a17	-0.07149141
94	0xbe37ac1a	-0.17936745
95	0xbdac864e	-0.08424054
96	0x3eb86ec6	0.36022013
97	0x3ee9f9b2	0.45698315
98	0xbeba96f0	-0.3644328
99	0xbe82513c	-0.25452602
100	0xbd114ea1	-0.035475377
101	0x3f26e5af	0.6519422
102	0xbc6b70e2	-0.014370175
103	0xbe4f0af5	-0.20219024
104	0xbd60cd73	-0.05488343
105	0x3ee72424	0.4514476
106	0x3da026cd	0.07819901
107	0xbe8c69e7	-0.27424547
108	0xbebdbe14	-0.3705908
109	0x3eaee146	0.34156245
110	0xbeeaa31f	-0.45827577
111	0x3e6bd93f	0.23032092
112	0xbcee0b77	-0.029058201
113	0x3ef86ad2	0.48518997
114	0xbe56546f	-0.20930646
115	0xbe54ef2a	-0.20794359
116	0xbdbaad32	-0.09115066
117	0xbd29a32c	-0.04141538
118	0xbdee798d	-0.11644278
119	0x3dde8b45	0.10866407
120	0xbec5e2de	-0.38649648
121	0xbd0f578e	-0.034995608
122	0xbe969724	-0.29412186
123	0xbd2aaaca	-0.041666783
124	0xbe560f32	-0.20904234
125	0xbf0efc00	-0.5585327
126	0x3dfe8de7	0.124294095
127	0xbe09f782	-0.13473323
128	0xbe98d37e	-0.29848856
129	0x3e76e699	0.24111404
130	0xbd681630	-0.056661785
131	0xbe2c486d	-0.16824503
132	0xbea7224a	-0.32643348
133	0xbe0d5acb	-0.13804166
134	0xbd575f79	-0.052581284
135	0xbd8cc49d	-0.068734385
136	0xbe686403	-0.22694401
137	0x3f0a4383	0.54009265
138	0x3e82dec8	0.25560594
139	0x3e529c4a	0.20567432
140	0x3e829b8f	0.25509307
141	0xbf0d3e5e	-0.5517329
142	0xbe3c4133	-0.18384247
143	0xbdd0837e	-0.1018133
144	0x3edc7589	0.43058422
145	0xbeab7e7b	-0.33494934
146	0xbcbf4da9	-0.023352461
147	0x3e11293c	0.14175886
148	0x3e932b4b	0.28743967
149	0xbe7f88c7	-0.2495452
150	0xbc68883a	-0.014192635
151	0x3e90785a	0.2821682
152	0xbd7ca3b1	-0.061679546
153	0x3ede3355	0.43398538
154	0xbe6dffa9	-0.23242058
155	0xbe8e0f07	-0.2774584
156	0x3e923491	0.2855573
157	0xbe8363d8	-0.25662112
158	0xbcff42c4	-0.031159766
159	0x3e0f3035	0.13983233
160	0x3e35cc0f	0.17753623
161	0x3eca1263	0.39467153
162	0x3edf7af1	0.43648484
163	0xbdd05cc2	-0.10173942
164	0x3e994388	0.29934335
165	0x3eae20ba	0.34009343
166	0xbd3bbb68	-0.04583302
167	0x3eeb5705	0.45964828
168	0x3e875c2c	0.2643751
169	0x3eb68031	0.35644677
170	0x3ebad5a2	0.36491114
171	0x3e9e9362	0.3097182
172	0xbee5ecb3	-0.4490715
173	0xbef5af3e	-0.47985262
174	0x3ecee60c	0.40409887
175	0xbee3a44e	-0.44461292
176	0x3e7ddc77	0.24791132
177	0x3e5d74b5	0.21626551
178	0x3ed42aa7	0.4143879
179	0xbdd2845d	-0.102791525
180	0x3ebf3a13	0.37348995
181	0xbea30200	-0.31837463
182	0xbe384d4c	-0.17998236
183	0xbe85b1f6	-0.26112336
184	0xbda9fcdf	-0.083001845
185	0xbd89f9d9	-0.06737108
186	0x3ed17400	0.40908813
187	0x3e2b6c73	0.16740589
188	0x3e8e2295	0.2776076
189	0xbe552283	-0.20813946
190	0x3e42d803	0.19027714
191	0x3e56751a	0.20943108
192	0x3e312270	0.17298293
193	0x3eb05163	0.34437093
194	0xbe5111fe	-0.2041702
195	0x3e9abc98	0.3022201
196	0x3d93105e	0.07180856
197	0x3f134336	0.5752443
198	0x3f049749	0.5179334
199	0x3e9a2b76	0.30111283
200	0x3ea43625	0.3207256
201	0xbea59cb7	-0.32346126
202	0x3ed73b73	0.42037544
203	0x3e3d0ffa	0.18463126
204	0x3e4f81ed	0.20264407
205	0xbd5bac40	-0.053631067
206	0x3ebcbd15	0.36863008
207	0xbe8fd6d2	-0.28093582
208	0x3e97f295	0.29677263
209	0xbe966744	-0.2937566
210	0x3e83fb14	0.25777495
211	0x3ea9d061	0.33166793
212	0x3e7bea7f	0.24601172
213	0xbdc2e343	-0.09516003
214	0xbe3cb838	-0.18429649
215	0xbe5fed25	-0.21867807
216	0xbee80957	-0.45319626
217	0x3ecca36c	0.3996843
218	0x3e601be5	0.21885641
219	0x3e3aeab6	0.18253598
220	0xbeaa44d9	-0.33255652
221	0x3e8cc061	0.27490523
222	0x3e31cce2	0.17363313
223	0xbe6d99e2	-0.23203233
224	0xbe75c2d6	-0.24000105
225	0x3e9b0524	0.3027736
226	0x3f02b00d	0.5104988
227	0x3ee575d9	0.44816473
228	0xbd772ddc	-0.06034647
229	0xbe2a28d5	-0.16617139
230	0x3e822564	0.25419152
231	0x3e80b9cb	0.2514175
232	0xbe216739	-0.15762033
233	0xbca97087	-0.02068354
234	0xbe69a359	-0.22816218
235	0xbe9d670d	-0.30742684
236	0xbd95137b	-0.07279106
237	0x3e9b6c6f	0.30356166
238	0x3e355197	0.17706905
239	0xbec07b1d	-0.37593928
240	0x3f34ec26	0.70672834
241	0xbe48d027	-0.19610654
242	0x3f2cf419	0.67559963
243	0xbde7774b	-0.1130205
244	0xbe9e91bd	-0.30970564
245	0x3f3fa63b	0.7486302
246	0xbed29d7e	-0.41135782
247	0x3e8b4208	0.27198815
248	0xbe667ff5	-0.22509749
249	0xbda8f25b	-0.08249351
250	0x3ec18b69	0.37801674
251	0xbe266cdb	-0.16252463
252	0x3e9c4420	0.30520725
253	0xbe19b55b	-0.15010588
254	0xbcaf95b3	-0.021433687
255	0xbe9480c9	-0.29004505
