codes/c_GCN_NPEC/agentHOF/VRP5_pretrain0/checkpoints_epoch_51_classification_decoder.pth (torch, 529793 bytes, 5 tensors)

MLP.0.weight f4 [256, 256]
0.052914128 0.033837844 0.04663234 0.014249151 0.013084814 0.050658733 -0.06307859 -0.07099355
0.025527846 0.07939366 -0.072357014 0.030201396 0.016132537 -0.14530139 -0.039647676 -0.062068798
0.017605022 0.01902344 0.04854289 0.024726506 0.011617176 -0.007626997 -0.024439152 0.044987664
0.0564385 -0.016062912 -0.022694528 0.028757192 0.03358878 -0.006232825 0.045886178 -0.052842002
0.08138962 -0.07722699 -0.04455291 -0.008635043 -0.060778793 0.007437692 -0.09278886 -0.07044471
-0.13635732 -0.06940433 -0.01646918 0.010000959 0.039293595 -0.06011603 -0.080695935 -0.075111434
0.07019958 0.0819842 0.031414658 0.014256868 0.049047083 0.047899235 0.0211856 -0.028982814
-0.011550326 -0.022067888 -0.019281965 -0.029347165 0.08848368 0.050380472 0.03620336 -0.037604943
0.0866425 -0.084738135 0.026698306 -0.057119668 -0.057373293 -0.043574087 -0.048466563 -0.06521655
0.040369283 -0.051924095 0.005467859 0.03990498 0.030983105 0.05037174 0.024998125 -0.058265552
0.032297075 0.043273035 -0.009950053 0.0029755326 0.05123071 0.06234367 0.025381386 0.060535926
-0.022267874 0.011186388 -0.030581446 -0.037828855 0.031377036 0.09387624 0.016074792 0.021897394
-0.03920446 0.08298811 -0.025513632 0.03780637 -0.017051598 0.0031815083 0.025252234 -0.01941684
0.04085554 -0.09173157 0.058890596 -0.027873877 0.06803063 -0.004091212 0.092758246 -0.10601105
0.011706468 -0.02205704 0.03784712 -0.06423756 0.069436915 -0.024822237 0.01745233 -0.009135175
-0.031327542 0.054212674 0.07662721 -0.043270193 0.07638088 0.04574551 -0.098666325 -0.08390638
0.026017152 -0.030765766 -0.06675087 0.0016104426 -0.011901681 0.010310762 -0.025566213 -0.022950739
-0.0332001 -0.059135087 -0.016033268 -0.0729212 -0.035926178 0.015277383 0.0017745345 -0.016881535
-0.01010258 0.010681836 0.06072214 -0.046796303 0.04573533 -0.0049096574 0.0017231755 0.06278615
0.02400893 -0.06316768 0.07724052 -0.058862906 -0.03247618 -0.016280344 0.0033120639 -0.022683656
0.009214462 -0.08273247 0.061031263 -0.07244744 -0.0577607 0.05948107 -0.0042812033 0.048558146
0.01567465 -0.054265503 -0.055682898 -0.04738392 0.07524801 -0.030664042 0.04165806 -0.018381879
-0.035136208 0.022288801 -0.11539643 0.026552439 0.06073216 0.0996788 -0.01173061 0.02609415
0.028409509 0.0017591439 0.017091589 0.0029926451 0.02010983 0.011356131 0.05859346 0.035068963
-0.03657114 -0.014760213 0.0013740272 -0.07878092 -0.020865023 0.05054079 -0.07016033 -0.10224571
0.06114163 -0.028794635 -0.10023562 0.0664484 -0.0048566237 0.006264768 -0.051378652 -0.046548855
-0.07035599 0.026155239 -0.05820604 0.072817914 0.07651578 -0.046168417 -0.045896243 0.00019652135
0.07504353 0.08314054 0.0379648 -0.02193771 0.0652836 0.033383988 -0.11464646 -0.036143523
0.007753455 -0.0134038925 0.01787836 -0.0782303 0.025252514 0.087588266 -0.05966094 0.0037223557
0.05726972 0.0831963 -0.033263274 0.047499057 0.015735386 0.06319026 0.011956684 0.037897404
0.007294178 0.020528223 0.04098844 0.013124266 0.03616319 0.023565674 -0.024978058 0.0143355
-0.052236658 -0.039120674 0.026743116 -0.024537329 0.045527197 -0.020580461 -0.07176197 0.014329771
00000000: 7cbc 583d 8d99 0a3d 8d01 3f3d 4575 693c
00000010: b061 563c 887f 4f3d 592f 81bd 1165 91bd
00000020: c61f d13c 2599 a23d ea2f 94bd eb68 f73c
00000030: 6228 843c e3c9 14be 9a65 22bd da3b 7ebd
00000040: 6838 903c 0cd7 9b3c e9d4 463d 3e8f ca3c
00000050: f855 3e3c e3eb f9bb 9e34 c8bc fc44 383d
00000060: 0e2c 673d 5e96 83bc e0e9 b9bc 3494 eb3c
00000070: 6394 093d ba3c ccbb 25f3 3b3d db70 58bd
00000080: 9aaf a63d 2f29 9ebd 1d7d 36bd ff79 0dbc
00000090: 2ff3 78bd e2b7 f33b 1608 bebd 5145 90bd
000000a0: 41a1 0bbe db23 8ebd 60ea 86bc 10db 233c
000000b0: 52f2 203d 3a3c 76bd e943 a5bd 06d4 99bd
000000c0: ccc4 8f3d 55e7 a73d a8ac 003d a395 693c
000000d0: 98e5 483d fd31 443d 6c8d ad3c 5e6d edbc
000000e0: 943d 3dbc b7c7 b4bc 36f5 9dbc 7769 f0bc
000000f0: ee36 b53d c15b 4e3d f949 143d a407 1abd
00000100: 9f71 b13d 308b adbd 68b6 da3c 50f6 69bd
00000110: 4200 6bbd be7a 32bd e084 46bd 4190 85bd
00000120: 435a 253d 5cae 54bd ba2b b33b 6873 233d
00000130: 48d0 fd3c 9952 4e3d dec8 cc3c dca7 6ebd
00000140: f049 043d 113f 313d 8c05 23bc 2701 433b
00000150: 4bd7 513d 135c 7f3d a0ec cf3c 85f4 773d
00000160: 1e6b b6bc 1d47 373c f185 fabc 6ef2 1abd
00000170: 3585 003d 3042 c03d 48af 833c 2a62 b33c
00000180: db94 20bd acf5 a93d f701 d1bc dada 1a3d
00000190: cbaf 8bbc da80 503b c6dd ce3c 1110 9fbc
000001a0: 2458 273d c3dd bbbd 4437 713d c257 e4bc
000001b0: a553 8b3d 930f 86bb 09f8 bd3d 521c d9bd
000001c0: 7ccc 3f3c f7b0 b4bc 9505 1b3d fb8e 83bd
000001d0: f134 8e3d 0158 cbbc 30f8 8e3c b3ab 15bc
000001e0: 4f51 00bd 1c0e 5e3d baee 9c3d 163c 31bd
000001f0: 946d 9c3d a55f 3b3d 9211 cabd 1cd7 abbd
00000200: ec21 d53c 7d08 fcbc aeb4 88bd 7d15 d33a
00000210: 45ff 42bc 78ee 283c 3c70 d1bc 3003 bcbc
00000220: d4fc 07bd a237 72bd 3358 83bc b657 95bd
00000230: 5427 13bd fd4d 7a3c 7f97 e83a 254b 8abc
00000240: 4b85 25bc de02 2f3c c7b7 783d 7bad 3fbd
00000250: f854 3b3d 31e1 a0bb 2ddc e13a 0696 803d
00000260: 60ae c43c 0e5e 81bd 4730 9e3d 3b1a 71bd
00000270: be05 05bd 5b5e 85bc 360f 593b 13d3 b9bc
00000280: 41f8 163c a46f a9bd ebfb 793d 535f 94bd
00000290: 7c96 6cbd 6ca2 733d 5649 8cbb e8e4 463d
000002a0: 2068 803c 8145 5ebd c013 64bd a415 42bd
000002b0: a11b 9a3d 2833 fbbc a4a1 2a3d 9895 96bc
000002c0: fcea 0fbd 0197 b63c f754 ecbd 8084 d93c
000002d0: 49c2 783d 6624 cc3d bf31 40bc 66c3 d53c
000002e0: 0fbb e83c 1393 e63a a903 8c3c 4120 443b
000002f0: 5fbd a43c 110f 3a3c b2ff 6f3d 79a4 0f3d
00000300: 9fcb 15bd d2d4 71bc b418 b43a e457 a1bd
00000310: 20ed aabc dc03 4f3d 38b0 8fbd 3366 d1bd
00000320: a56f 7a3d bae2 ebbc 5548 cdbd 1916 883d
00000330: 5024 9fbb af48 cd3b 6c72 52bd 03aa 3ebd
00000340: cd16 90bd 8343 d63c 7569 6ebd 8f21 953d
00000350: 4eb4 9c3d 181b 3dbd b3fd 3bbd 4c11 4e39
00000360: 6cb0 993d 9645 aa3d fa80 1b3d b6b6 b3bc
00000370: 68b3 853d a6bd 083d c3cb eabd 3b0b 14bd
00000380: b210 fe3b 009c 5bbc a375 923c 3537 a0bd
00000390: 5cde ce3c 7a61 b33d 085f 74bd c4f2 733b
000003a0: a793 6a3d d262 aa3d 123f 08bd 5f8e 423d
000003b0: 7fe7 803c e569 813d f8e5 433c 4f3a 1b3d
000003c0: 0004 ef3b ce2a a83c 7fe3 273d 2907 573c
000003d0: da1f 143d cd0c c13c c99e ccbc 72df 6a3c
000003e0: 1bf6 55bd 003d 20bd 6114 db3c 8202 c9bc
000003f0: ba7a 3a3d 5b98 a8bc f1f7 92bd 6ac7 6a3c

MLP.0.bias f4 [256]
0.019834364 0.012606779 -0.043970432 -0.08785778 -0.06435841 0.043617256 -0.0691871 0.014219772
0.044544853 -0.06284479 0.04197322 -0.023155106 -0.03436589 -0.023876643 -0.12728879 -0.0022210195
-0.028637167 -0.09775766 -0.033718087 -0.071266815 -0.0063190614 -0.12551732 -0.06494252 0.03451284
-0.019757958 0.009325216 -0.0647185 -0.02974713 -0.028204665 -0.013319357 -0.025860822 -0.025699494
-0.007820856 0.0469148 -0.08636024 -0.038862295 -0.057751283 -0.06357809 -0.07480153 -0.022017473
-0.07005648 0.05575612 -0.05146562 0.024314309 -0.08448561 -0.07916484 -0.0006159339 0.035011746
-0.06796527 -0.08113473 -0.050988574 -0.008471863 -0.03441287 0.008185242 -0.092109255 -0.0030998345
-0.00998636 0.026500463 0.040596265 -0.08831601 0.014405976 0.05738871 -0.093580775 -0.14656219
-0.10130889 -0.1275712 0.033264764 -0.027246205 0.008515582 -0.07818084 -0.03495946 -0.03961792
-0.09025237 -0.011015096 -0.002727918 -0.0005480334 0.008899241 0.009213346 -0.051832657 -0.066394255
-0.026227612 -0.016084561 -0.095332615 -0.04777573 -0.070785105 -0.055182304 0.0483813 -0.06696697
-0.09033382 -0.15011413 -0.05899288 -0.06553732 -0.047806397 -0.029291635 0.050675523 -0.035028543
0.011912374 -0.050001364 0.02587457 0.0038329784 0.0328423 0.021793768 -0.04587963 -0.04224024
-0.07651245 -0.018682616 0.03266474 -0.07474682 -0.06503837 0.00062739925 -0.048417304 0.040079072
-0.04789787 -0.012947701 -0.060378127 -0.016853938 -0.040164784 0.02145682 -0.011738273 -0.06955195
-0.023007903 -0.042263225 -0.02611161 -0.03664722 -0.026582932 0.021159649 -0.010202816 -0.05680266
-0.006722786 -0.0017344353 0.028955193 0.0155249825 -0.033686146 -0.009765268 -0.028708994 -0.06828709
-0.06080498 0.016757552 -0.11219402 -0.017983845 -0.021764185 -0.04474026 0.0016933562 -0.0481884
-0.052865647 0.042895295 0.015962847 -0.06318739 -0.03984074 0.025028223 0.022518897 -0.05413915
0.011794667 -0.07197587 -0.07345995 0.043093074 -0.084528685 -0.08252812 0.0018630502 0.058221817
0.004235383 -0.039836485 0.0536646 0.002395905 -0.024860404 0.026316974 -0.013700202 0.024217686
-0.054463655 -0.028438404 -0.010214745 -0.048486244 0.04142355 -0.04223912 -0.056591064 -0.014711468
-0.0686497 -0.06128467 -0.013475344 0.033308174 -0.026960777 0.009769357 -0.031067114 -0.024421075
-0.032528006 0.010946615 -0.075604565 -0.077009395 -0.088648215 -0.034463618 -0.011719787 -0.04919057
0.03151319 -0.041281488 0.029691152 -0.05502535 0.014348374 -0.041028704 -0.049738444 0.017581962
-0.02945659 -0.04171501 -0.02882637 -0.016830327 -0.05617533 -0.08430917 -0.07992593 -0.034664027
0.009467965 0.0058912393 -0.08340004 -0.04139298 -0.026423331 0.021939572 0.015450589 -0.0064035836
0.012039559 -0.13739838 -0.021301461 0.022207942 -0.04883112 -0.09350932 -0.07627715 -0.10795308
0.024504611 -0.09252406 -0.11768592 -0.006975563 -0.020789007 0.061460428 -0.079967886 0.005225565
-0.087858275 -0.11748007 0.024105247 0.051530376 -0.04815012 -0.006873717 0.0018937615 -0.037869636
-0.08005986 -0.10232696 -0.042613827 -0.0026925614 -0.019234855 -0.006299783 -0.09958615 -0.08240039
-0.022934629 -0.050869886 0.024175428 -0.075401954 -0.027079431 -0.08058818 -0.016962487 0.058336273
00000000: ad7b a23c aa8c 4e3c 571a 34bd c8ee b3bd
00000010: 58ce 83bd 02a8 323d f7b1 8dbd 0cfa 683c
00000020: aa74 363d c5b4 80bd 1cec 2b3d c7af bdbc
00000030: 3fc3 0cbd f398 c3bc fe57 02be 868e 11bb
00000040: 7e98 eabc 2b35 c8bd fa1b 0abd 56f4 91bd
00000050: 2110 cfbb 9d87 00be 9500 85bd 565d 0d3d
00000060: 71db a1bc cac8 183c 228b 84bd 41b0 f3bc
00000070: 780d e7bc 6f39 5abc 13da d3bc bf87 d2bc
00000080: 0c23 00bc bc29 403d a3dd b0bd 122e 1fbd
00000090: 9c8c 6cbd 3b35 82bd 8b31 99bd fd5d b4bc
000000a0: c679 8fbd 8760 643d 9dcd 52bd cd2e c73c
000000b0: cb06 adbd 2d21 a2bd a076 21ba 7a68 0f3d
000000c0: 6031 8bbd f729 a6bd 65d9 50bd 92cd 0abc
000000d0: 82f4 0cbd 651b 063c c7a3 bcbd 9826 4bbb
000000e0: d49d 23bc 8017 d93c 4548 263d 06df b4bd
000000f0: 0b07 6c3c 6d10 6b3d 47a7 bfbd 6614 16be
00000100: 097b cfbd 06a2 02be a240 083d 6f33 dfbc
00000110: f184 0b3c 471d a0bd a731 0fbd 6646 22bd
00000120: 3cd6 b8bd a978 34bc dfc6 32bb e6a9 0fba
00000130: 1fce 113c 93f3 163c 7b4e 54bd b6f9 87bd
00000140: 4adb d6bc c5c3 83bc bf3d c3bd 7cb0 43bd
00000150: c8f7 90bd d706 62bd 782b 463d fb25 89bd
00000160: f000 b9bd 85b7 19be 85a2 71bd 6e38 86bd
00000170: a4d0 43bd 03f5 efbc 2391 4f3d 177a 0fbd
00000180: 1e2c 433c 3bce 4cbd e8f6 d33c b532 7b3b
00000190: a685 063d d888 b23c 47ec 3bbd 1a04 2dbd
000001a0: 8fb2 9cbd 490c 99bc 76cb 053d dc14 99bd
000001b0: d632 85bd 0d78 243a 3951 46bd f429 243d
000001c0: 8f30 44bd 9822 54bc 0e4f 77bd 4511 8abc
000001d0: d483 24bd 37c6 af3c e351 40bc 4171 8ebd
000001e0: 127b bcbc 341c 2dbd 04e8 d5bc 651b 16bd
000001f0: 73c4 d9bc 0057 ad3c b629 27bc e8a9 68bd
00000200: d14a dcbb fe55 e3ba 7133 ed3c 7f5c 7e3c
00000210: 7cfa 09bd 81fe 1fbc 202f ebbc 1ada 8bbd
00000220: a50e 79bd 2247 893c fac5 e5bd db52 93bc
00000230: ce4a b2bc 9041 37bd 9bf3 dd3a 3361 45bd
00000240: a689 58bd fab2 2f3d 84c4 823c 6468 81bd
00000250: 0b30 23bd fd07 cd3c 8d79 b83c 03c1 5dbd
00000260: 6b3e 413c 1668 93bd 2c72 96bd 5d82 303d
00000270: 601d adbd 8104 a9bd 9731 f43a 007a 6e3d
00000280: f8c8 8a3b 952b 23bd 69cf 5b3d 9e04 1d3b
00000290: 0ca8 cbbc b296 d73c d076 60bc 2b64 c63c
000002a0: 4815 5fbd a8f7 e8bc bf5b 27bc 8399 46bd
000002b0: beab 293d ed02 2dbd 08cc 67bd 5e08 71bc
000002c0: 3798 8cbd a205 7bbd b0c7 5cbc 276e 083d
000002d0: d9dc dcbc a70f 203c 7680 febc b50e c8bc
000002e0: 163c 05bd 6e59 333c 91d6 9abd 1ab7 9dbd
000002f0: 328d b5bd b929 0dbd 5904 40bc 0d7c 49bd
00000300: fa13 013d c716 29bd dc3a f33c 4362 61bd
00000310: 7115 6b3c b70d 28bd 8aba 4bbd 0c08 903c
00000320: f24e f1bc 5cdd 2abd 4825 ecbc c1df 89bc
00000330: 1a18 66bd 49aa acbd 35b0 a3bd defb 0dbd
00000340: 861f 1b3c 4c0b c13b a4cd aabd af8b 29bd
00000350: be75 d8bc 9eba b33c 7824 7d3c 27d5 d1bb
00000360: 9241 453c 29b2 0cbe 6780 aebc 6eed b53c
00000370: 2403 48bd d081 bfbd 3237 9cbd 8116 ddbd
00000380: e5bd c83c 417d bdbd 5105 f1bd 4393 e4bb
00000390: b54d aabc eebd 7b3d 34c6 a3bd 373b ab3b
000003a0: 0aef b3bd 6499 f0bd 5e78 c53c 8411 533d
000003b0: 0f39 45bd eb3c e1bb 1738 f83a 311d 1bbd
000003c0: 6df6 a3bd cc90 d1bd d68b 2ebd af75 30bb
000003d0: 6a92 9dbc 696e cebb d3f3 cbbd 89c1 a8bd
000003e0: 67e1 bbbc f15c 50bd 8c0b c63c 576c 9abd
000003f0: afd5 ddbc 6a0b a5bd eaf4 8abc 04f2 6e3d

MLP.2.weight f4 [256, 256]
-0.029987475 0.03674717 -0.08149729 0.024224287 0.02786124 0.02466719 0.087964855 -0.03240584
0.020844635 0.078838296 -0.022155944 -0.030269828 -0.030649325 0.029720977 -0.07950402 -0.0023675929
0.03837543 0.046162117 0.037866484 -0.010292967 -0.023412893 0.041918054 0.010975351 -0.030033978
-0.0090013165 -0.043254063 0.0884456 0.07069238 0.031610973 0.049713265 0.04791321 -0.06576287
0.007869319 0.025070563 -0.0771379 -0.0054018693 0.017920056 0.04600252 -0.026265968 0.036074065
-0.009639058 0.015297697 -0.026072824 0.046471305 0.057767183 0.039122976 0.0076692323 0.058617756
0.02417784 0.05189614 0.02664078 0.062030636 0.01952029 0.040338952 0.05354662 -0.058976363
0.001423672 0.05427397 -0.031120375 0.10557192 0.022936452 -0.007966711 0.081193864 0.015310458
-0.0018557699 0.04396062 0.031246267 0.0835191 0.021875724 -0.029987969 -0.048949305 0.09932204
0.02841548 0.08655727 0.004121564 0.015865311 0.0074232933 -0.03273628 -0.0051567424 0.040403586
0.045522973 0.06922656 0.004583944 -0.019220334 0.03448984 0.069825895 0.0082271155 0.026417868
0.028629985 0.041032646 0.024647828 -0.045212265 0.06336359 -0.031263247 -0.016089913 -0.0053678504
-0.038113646 0.057366483 0.0033148462 0.044176154 -0.006524241 -0.07376746 -0.012117849 -0.025136521
-0.026641311 -0.018827295 -0.027426885 0.046134952 0.05777424 0.11219667 0.06132315 0.026791044
-0.012226277 -0.09550165 -0.03471127 -0.030979395 0.047400385 0.048265904 0.06495063 0.0052531934
-0.009491998 -0.08020628 0.020784916 -0.05168265 0.021259112 0.031296033 -0.006250769 -0.041898243
0.018985732 -0.062206436 0.0273526 -0.017919492 -0.03610036 0.037674636 0.037160575 0.003801047
0.021644967 0.01910708 0.04807153 -0.0028033385 -0.035039026 -0.0030923083 -0.14614679 -0.0045533213
-0.037251856 -0.0010785275 0.057043765 -0.065232754 0.016770571 -0.093733035 0.030135728 -0.017187357
-0.055229567 0.08150675 0.035072237 0.023249151 0.08027087 -0.004888453 -0.037072398 0.021720931
-0.022656849 0.047825146 -0.0024942053 -0.0024798638 0.086182 -0.019252174 0.07043243 0.022000141
-0.0410992 0.04770878 -0.017834378 0.001105881 0.025665969 0.043084674 0.027625272 0.0037703637
-0.06342487 0.02838815 0.0016749677 0.0027479096 -0.100500956 0.05117775 0.051183645 -0.024214178
-0.01747063 -0.020414665 -0.026064606 -0.033425897 0.13168761 -0.026356842 -0.010369359 0.06193528
0.012427496 0.004974666 -0.017006658 0.023989841 0.02866279 0.05051163 0.09078801 -0.042628646
-0.0020774414 0.054505374 0.011894903 0.06950194 -0.03788545 0.07865926 0.02628261 7.10337e-05
0.034902565 -0.040202335 0.045323033 0.044048864 0.1099614 0.033144902 -0.07624813 0.08734366
0.05596102 -0.0355146 0.10118048 -0.0008658999 0.051712465 -0.08142372 0.051020272 0.044906583
-0.011561647 0.079592824 0.098665066 0.0020036648 0.03774577 0.0012670516 0.01550673 -0.07221851
-0.10207383 0.0056909877 -0.059637535 0.009759944 0.05957964 0.01651 0.067600474 0.0396334
0.055720054 -0.030142266 0.01934516 0.007612048 -0.0022429135 0.06282693 -0.01836273 0.06411906
-0.0125335585 0.09799167 -0.06180213 -0.07774798 -0.011060451 0.0029730895 -0.08025574 0.052952
00000000: 4ba8 f5bc 3384 163d 0de8 a6bd 0372 c63c
00000010: 413d e43c d912 ca3c eb26 b43d fcbb 04bd
00000020: 5ec2 aa3c f975 a13d 6280 b5bc 6ef8 f7bc
00000030: 4b14 fbbc 6879 f33c 01d3 a2bd 9e29 1bbb
00000040: 8e2f 1d3d 7d14 3d3d e319 1b3d d5a3 28bc
00000050: 65cc bfbc 44b2 2b3d f5d1 333c d109 f6bc
00000060: 427a 13bc 2c2b 31bd f722 b53d 2bc7 903d
00000070: 827a 013d 23a0 4b3d a440 443d afae 86bd
00000080: 51ee 003c c860 cd3c 7afa 9dbd 2a02 b1bb
00000090: 15cd 923c 236d 3c3d ba2b d7bc 66c2 133d
000000a0: 24ed 1dbc 31a3 7a3c ad96 d5bc b258 3e3d
000000b0: 489d 6c3d 6a3f 203d 2f4e fb3b 2c19 703d
000000c0: 9b10 c63c 0c91 543d c43d da3c d613 7e3d
000000d0: 04e9 9f3c 753a 253d b353 5b3d 3391 71bd
000000e0: 819a ba3a 624e 5e3d 28f0 febc 1736 d83d
000000f0: 3ae5 bb3c cf86 02bc f848 a63d b7d8 7a3c
00000100: 4e3d f3ba 0d10 343d 2cf8 ff3c 100c ab3d
00000110: b834 b33c 54a9 f5bc 117f 48bd 5b69 cb3d
00000120: 95c7 e83c f044 b13d 2f0e 873b f8f7 813c
00000130: 193f f33b 7a16 06bd e4f9 a8bb 3b7e 253d
00000140: 4c76 3a3d a8c6 8d3d e934 963b f673 9dbc
00000150: 3845 0d3d e100 8f3d 06cb 063c 496a d83c
00000160: 6e89 ea3c d911 283d 3eea c93c 7f30 39bd
00000170: c5c4 813d e40d 00bd fece 83bc cbe4 afbb
00000180: 0e1d 1cbd 1ef9 6a3d e43d 593b 0ef2 343d
00000190: 4dc9 d5bb 6513 97bd f189 46bc 1beb cdbc
000001a0: e13e dabc b33b 9abc 59ae e0bc 01f8 3c3d
000001b0: aea4 6c3d 5ec7 e53d fc2d 7b3d e478 db3c
000001c0: b950 48bc 5e96 c3bd 682d 0ebd 80c8 fdbc
000001d0: e826 423d 78b2 453d d604 853d fb22 ac3b
000001e0: 5384 1bbc 3143 a4bd 2145 aa3c 30b1 53bd
000001f0: 9727 ae3c 4530 003d 40d3 ccbb 7e9d 2bbd
00000200: f787 9b3c 2dcc 7ebd 8f12 e03c e6cb 92bc
00000210: f9dd 13bd b850 1a3d b035 183d fd1a 793b
00000220: c950 b13c 7386 9c3c a7e6 443d 37b8 37bb
00000230: 1585 0fbd 53a8 4abb 81a7 15be 0734 95bb
00000240: 6795 18bd 615d 8dba b9a6 693d c098 85bd
00000250: 7062 893c 1bf7 bfbd 34df f63c 80cc 8cbc
00000260: 6638 62bd 03ed a63d e8a7 0f3d 0175 be3c
00000270: 0e65 a43d 512f a0bb 3ad9 17bd 18f0 b13c
00000280: db9a b9bc 4de4 433d d275 23bb 3685 22bb
00000290: 3080 b03d bcb6 9dbc e13e 903d a439 b43c
000002a0: a257 28bd 486a 433d 6719 92bc 35f3 903a
000002b0: 7041 d23c 8e79 303d 654e e23c 3518 773b
000002c0: e6e4 81bd 448e e83c 978a db3a 4616 343b
000002d0: 72d3 cdbd c39f 513d f1a5 513d d05c c6bc
000002e0: 911e 8fbc a83c a7bc 7185 d5bc 98e9 08bd
000002f0: 1ed9 063e 4eea d7bc 3ee4 29bc d9af 7d3d
00000300: b29c 4b3c 8602 a33b 8c51 8bbc 5886 c43c
00000310: 3ace ea3c 48e5 4e3d 10ef b93d 609b 2ebd
00000320: af25 08bb 0741 5f3d d7e2 423c 0857 8e3d
00000330: c62d 1bbd 1b18 a13d a14e d73c edf7 9438
00000340: fef5 0e3d 34ab 24bd a5a4 393d 956c 343d
00000350: 7133 e13d f3c2 073d fb27 9cbd 3ce1 b23d
00000360: 6237 653d c277 11bd b637 cf3d 8ffd 62ba
00000370: 73d0 533d 7bc1 a6bd a2fa 503d f7ef 373d
00000380: 106d 3dbc 9001 a33d e910 ca3d eb4f 033b
00000390: 4f9b 1a3d 3213 a63a f10f 7e3c 4ce7 93bd
000003a0: 160c d1bd 777b ba3b 7d46 74bd 2ce8 1f3c
000003b0: c809 743d fb3f 873c 1e72 8a3d a256 223d
000003c0: b63a 643d eaec f6bc be79 9e3c 7d6e f93b
000003d0: d8fd 12bb 68ab 803d 706d 96bc db50 833d
000003e0: 8e59 4dbc dbaf c83d 3b24 7dbd 553a 9fbd
000003f0: e536 35bc 2ad8 423b 1f5d a4bd 32e4 583d

MLP.2.bias f4 [256]
0.020030985 0.041843202 -0.005959021 -0.020596791 -0.018487226 -0.044661768 -0.007200576 0.056611057
0.028365823 0.03440664 -0.012585593 -0.022733575 -0.03984517 0.00484807 -0.039521597 0.0008417617
0.016050808 0.03773236 -0.053509094 -0.008876749 0.0020828207 -0.029565081 0.036965128 0.0032152939
0.03806061 -0.030844362 0.038242638 -0.009614846 0.042988386 0.0051561384 -0.0351666 0.039516818
-0.053888757 0.058522146 -0.037539765 0.006961932 0.0499154 -0.033774395 5.633361e-05 0.05492871
0.027835395 0.06035807 -0.022266546 -0.008388536 -0.020099036 0.042568482 -0.073069364 -0.038657848
0.05896542 -0.011675788 0.07832423 0.070401356 0.008256704 0.03185694 0.05138756 -0.032665696
0.049534574 -0.035550956 -0.044436447 -0.012735257 0.022003664 -0.014590404 -0.08744523 0.06562553
-0.05618833 -0.05506564 -0.003978249 0.03784895 0.033455964 0.031766776 -0.009366522 0.0057830815
0.023411103 0.018468224 -0.021724133 -0.012858202 -0.036785252 0.046542466 -0.044863533 -0.028920973
0.06875066 0.062211625 0.065570675 0.017998144 0.0064398027 -0.0005162254 0.063250326 -0.0038933896
-0.00493673 0.033489782 -0.059229665 -0.021005038 -0.055539254 -0.03174495 0.09825409 0.030932443
-0.039208166 -0.057654895 -0.04585238 0.01703377 -0.042045444 0.00087199925 -0.01521701 0.049362626
0.06132887 0.014473431 0.01573482 -0.027301075 -0.016737692 0.04480031 -0.055887695 -0.045629114
0.02314719 0.070114456 0.06928823 0.02031548 0.024291392 -0.04734341 0.018973524 -0.056650326
-0.050472517 -0.0034542093 -0.017708294 -0.052259978 -0.0068559158 -0.0071889316 0.042824745 0.039635327
0.0058875685 -0.0004523155 0.0511656 0.030223776 -0.021654619 0.040958405 -0.0638639 -0.046311844
0.062384676 0.05116629 -0.006922766 0.00014800476 -0.020325104 0.046448197 0.03870762 0.006811341
-0.034922056 -0.04136624 0.026727695 0.020550983 -0.006779092 -0.07420138 -0.048857886 -0.043582693
0.038748544 -0.0687368 -0.0057537258 -0.04217398 -0.017701052 -0.06435198 0.037635818 -0.008887145
0.05176592 0.03079517 -0.014827881 -0.03242245 -0.009311439 -0.023763152 -0.009727932 -0.009277001
0.013806652 -0.019444179 -0.027404414 -0.05676302 0.0054000183 -0.054841954 0.05925773 0.032746494
0.022871327 0.04704435 -0.03699844 0.014566212 0.049650125 0.046801575 -0.0207796 -0.006680756
-0.060693193 -0.041253235 0.04632979 -0.03234177 0.02805318 -0.0068136775 0.058097254 -0.029908555
0.056473605 -0.068013385 0.0032104277 -0.009391944 -0.036009148 -0.022726927 0.006857477 0.04627532
-0.00923077 -0.037066173 0.04083194 0.038039498 0.011082415 -0.01930839 0.046965238 0.019870695
0.030560378 -0.04576554 -0.04120613 -0.044609558 0.024714498 0.043304205 0.021908224 0.018678486
-0.015222858 -0.04468476 -0.046493933 -0.035800092 -0.0027006292 -0.014513495 0.0065911612 0.010190194
0.012500704 -0.07709016 0.017432222 0.07037408 -0.029459335 0.044606667 -0.03580872 0.036497824
-0.05538555 0.033088144 0.020021383 0.05807727 -0.003807577 0.033610027 0.01973464 0.053634357
-0.027460942 0.020811217 -0.040125422 0.028409133 0.0006295342 0.047649506 -0.07034387 -0.017111178
0.0011447916 0.027136205 0.016073763 0.07989659 0.0010231293 0.032413628 0.019219102 -0.05852513
00000000: 0518 a43c c763 2b3d e443 c3bb 9aba a8bc
00000010: 8672 97bc 42ef 36bd cff2 ebbb ffe0 673d
00000020: 715f e83c faed 0c3d ce33 4ebc c33b babc
00000030: b034 23bd 8fdc 9e3b 66e1 21bd aca9 5c3a
00000040: fc7c 833c 3f8d 1a3d 5a2c 5bbd c96f 11bc
00000050: ef7f 083b 7832 f2bc bf68 173d aeb7 523b
00000060: 71e5 1b3d 51ad fcbc 50a4 1c3d 9687 1dbc
00000070: 9714 303d d3f4 a83b da0a 10bd 63dc 213d
00000080: 75ba 5cbd ebb4 6f3d 4cc3 19bd eb20 e43b
00000090: 1774 4c3d 0557 0abd c147 6c38 edfc 603d
000000a0: 0e07 e43c 063a 773d 5568 b6bc 1270 09bc
000000b0: bca6 a4bc 4a5c 2e3d 64a5 95bd b157 1ebd
000000c0: b985 713d ce4b 3fbc 7468 a03d 962e 903d
000000d0: 2047 073c 6c7c 023d c37b 523d 77cc 05bd
000000e0: c4e4 4a3d e19d 11bd fe02 36bd 8aa7 50bc
000000f0: 0741 b43c 970c 6fbc 7c16 b3bd ae66 863d
00000100: bc25 66bd 828c 61bd f95b 82bb 8007 1b3d
00000110: 1f09 093d e11d 023d 0a76 19bc 0180 bd3b
00000120: a4c8 bf3c ac4a 973c cff6 b1bc 35ab 52bc
00000130: 22ac 16bd 50a3 3e3d d3c2 37bd adeb ecbc
00000140: 25cd 8c3d 9ed1 7e3d eb49 863d d870 933c
00000150: fb04 d33b 4d53 07ba 6389 813d 3d28 7fbb
00000160: 4bc4 a1bb 952c 093d ce9a 72bd c212 acbc
00000170: 217d 63bd fe06 02bd 7139 c93d 0966 fd3c
00000180: be98 20bd 8a27 6cbd b5cf 3bbd 688a 8b3c
00000190: d837 2cbd e196 643a c450 79bc 7730 4a3d
000001a0: fb33 7b3d f821 6d3c 4fe6 803c 81a6 dfbc
000001b0: 7c1d 89bc 8880 373d 7fea 64bd 98e5 3abd
000001c0: 2d9f bd3c 2b98 8f3d fde6 8d3d a66c a63c
000001d0: befe c63c 2aeb 41bd 5d6e 9b3c 2c0a 68bd
000001e0: 45bc 4ebd 0460 62bb fc10 91bc 8f0e 56bd
000001f0: 97a7 e0bb 2191 ebbb 0069 2f3d a758 223d
00000200: 81ec c03b c224 edb9 0593 513d da97 f73c
00000210: 0765 b1bc 00c4 273d 14cb 82bd 7db1 3dbd
00000220: 1387 7f3d be93 513d 5fd8 e2bb ba31 1b39
00000230: d580 a6bc 7740 3e3d e28b 1e3d ab31 df3b
00000240: 6e0a 0fbd a56f 29bd 0af4 da3c 895a a83c
00000250: 2523 debb e5f6 97bd 351f 48bd c483 32bd
00000260: cbb6 1e3d e1c5 8cbd c089 bcbb a0be 2cbd
00000270: cc01 91bc f9ca 83bd 0428 1a3d 639b 11bc
00000280: 8008 543d 2746 fc3c a4f0 72bc 67cd 04bd
00000290: 018f 18bc f1aa c2bc e761 1fbc 90fe 17bc
000002a0: 4c35 623c 6649 9fbc 397f e0bc 5780 68bd
000002b0: a3f2 b03b f5a1 60bd 3cb8 723d 3021 063d
000002c0: a65c bb3c 94b1 403d ad8b 17bd 1fa7 6e3c
000002d0: ee5d 4b3d 02b3 3f3d fb39 aabc 3eea dabb
000002e0: 6d99 78bd 27f9 28bd 4ec4 3d3d ce78 04bd
000002f0: c8cf e53c 4545 dfbb 63f7 6d3d c902 f5bc
00000300: de50 673d 9a4a 8bbd 0a66 523b abe0 19bc
00000310: 547e 13bd d22d babc b0b4 e03b 318b 3d3d
00000320: a83c 17bc b3d2 17bd 643f 273d 4ecf 1b3d
00000330: 0493 353c a12c 9ebc 9f5e 403d dec7 a23c
00000340: c259 fa3c a674 3bbd c2c7 28bd 83b8 36bd
00000350: 0f76 ca3c c05f 313d e078 b33c a003 993c
00000360: 4b69 79bc 5e07 37bd 6c70 3ebd 1ea3 12bd
00000370: 0afd 30bb 03ca 6dbc abfa d73b c5f4 263c
00000380: c1cf 4c3c 72e1 9dbd 05ce 8e3c 4920 903d
00000390: b454 f1bc 7bb5 363d 2aac 12bd be7e 153d
000003a0: f5db 62bd 6f87 073d e203 a43c 6ee2 6d3d
000003b0: 8b88 79bb abaa 093d 8aaa a13c b3af 5b3d
000003c0: c5f5 e0bc 497c aa3c 8e5a 24bd 45ba e83c
000003d0: 5307 253a 212c 433d 7210 90bd be2c 8cbc
000003e0: d50c 963a bf4c de3c 20ad 833c d3a0 a33d
000003f0: 861a 863a 27c4 043d 6171 9d3c 0cb8 6fbd

MLP.4.weight f4 [1, 256]
-0.05409488 -0.05041067 -0.13781707 -0.0717274 0.08259788 -0.019607801 0.09883116 0.07329665
0.1511256 -0.10567533 0.08193172 0.08637959 0.06277017 -0.0669374 -0.07851926 -0.06259199
-0.08431959 -0.06168925 -0.049851954 0.103143685 -0.053602833 0.07997989 -0.21225964 -0.093634345
-0.04395034 0.020452064 0.03687007 -0.055863556 0.18674105 0.14609121 -0.06740007 0.062023286
-0.005680114 0.08525552 -0.031647645 0.030411158 -0.11684344 0.04993643 0.06090559 0.05530114
-0.038066998 -0.017725095 -0.0793083 0.04165968 0.11862709 0.038405422 -0.093433194 -0.12365019
0.05075028 -0.046949297 0.1039973 0.074243024 -0.017567895 0.06109054 -0.011446211 -0.082609326
-0.06744589 -0.063418105 0.13596343 0.119058326 -0.1113821 0.052535888 -0.055049136 0.09708362
0.06876135 0.016490957 0.071019195 -0.015970275 -0.057702262 -0.04495496 -0.09047196 -0.06840508
-0.041753672 0.08860506 0.10074479 0.097052515 -0.0601635 0.05048694 -0.12461785 -0.034451596
0.19036692 0.12704071 0.07860211 0.05374185 -0.061595753 -0.078676686 -0.04539057 0.064914785
0.08543562 0.11499312 -0.083578736 0.21270297 -0.080923446 0.09303944 0.096679464 -0.060423713
0.09357229 -0.057060704 0.06317558 -0.027063478 0.07653539 0.020049386 -0.08658246 -0.04120806
0.07957966 -0.06753738 0.08801476 0.14843017 -0.06923587 0.06705051 0.16574809 0.1762852
-0.103388704 0.090316266 0.15749131 -0.050700348 0.06809838 0.09583484 0.058566786 -0.073198035
-0.22002375 0.13039014 0.075949185 -0.037285145 0.19489545 0.21835597 -0.027611097 0.054322876
0.1087291 0.09340793 -0.02990018 -0.086872935 0.10061031 -0.053441573 0.105037786 0.0729491
0.16198856 -0.09073387 -0.014063493 -0.06992099 0.11694409 0.052569762 -0.09604124 -0.03664514
-0.114755146 -0.016974645 0.02875727 0.13821606 0.09495658 -0.0054026456 -0.09100401 -0.048734147
-0.046582296 -0.06957929 0.12759481 -0.064024754 0.01217921 0.13034694 0.17333676 0.05647024
0.051431924 0.14655349 -0.066365354 -0.08082176 0.06661329 -0.049972918 0.055128094 0.017721666
-0.015367001 -0.04147394 -0.06658524 -0.11326076 -0.18389727 -0.040921852 -0.04523859 0.083247535
0.05785391 -0.051409576 -0.07422204 -0.07501165 -0.078505404 -0.062273268 0.074301876 -0.0013194112
-0.05787254 -0.07091525 -0.019799504 0.17906253 -0.0777294 0.07447049 -0.02918474 -0.023090515
-0.02089669 0.0046376 -0.062335256 -0.051318627 -0.07587376 -0.061437644 -0.015749462 0.17545696
-0.09673726 -0.07280569 -0.09766182 0.10901434 -0.080444515 -0.18429616 0.053566165 -0.01968344
-0.069528155 0.09661334 -0.13920934 0.086122654 0.047362458 -0.06339082 -0.025139771 -0.06549893
-0.061329264 0.08518168 0.06474452 -0.02648568 -0.08639961 -0.0748618 -0.06574733 -0.07069217
0.023439415 -0.16380304 0.08484712 0.07363049 -0.064958334 -0.099896625 -0.16973884 0.15795417
0.108785786 -0.034842398 0.09106266 0.06692121 -0.1380921 0.084782965 -0.04854388 -0.0688701
-0.036551762 -0.027795395 -0.12200032 0.044640288 -0.09661916 -0.13943839 -0.11563767 -0.052330837
-0.080258906 0.127419 -0.04304163 0.09927625 0.025015969 -0.037947927 0.11073018 0.048668083
00000000: 9892 5dbd 6b7b 4ebd eb1f 0dbe d1e5 92bd
00000010: 1429 a93d 8aa0 a0bc fe67 ca3d 8e1c 963d
00000020: abc0 1a3e 4f6c d8bd d1cb a73d c8e7 b03d
00000030: a68d 803d 7a16 89bd b5ce a0bd 3b30 80bd
00000040: c0af acbd dead 7cbd 9031 4cbd ff3c d33d
00000050: a58e 5bbd 7fcc a33d 975a 59be 5dc3 bfbd
00000060: 4605 34bd 168b a73c 1205 173d 2fd1 64bd
00000070: 0c39 3f3e ef98 153e 0c09 8abd 210c 7e3d
00000080: 4020 babb 729a ae3d f6a0 01bd d220 f93c
00000090: 9d4b efbd 248a 4c3d 2478 793d 7383 623d
000000a0: 24ec 1bbd 3834 91bc 646c a2bd 57a3 2a3d
000000b0: c2f2 f23d 014f 1d3d e759 bfbd 503c fdbd
000000c0: 87df 4f3d e84d 40bd 89fc d43d ba0c 983d
000000d0: 8cea 8fbc 133a 7a3d e388 3bbc 142f a9bd
000000e0: 1221 8abd 5ae1 81bd ff39 0b3e dad4 f33d
000000f0: 4c1c e4bd df2f 573d 347b 61bd c7d3 c63d
00000100: c0d2 8c3d 0b18 873c 8372 913d 18d4 82bc
00000110: 3559 6cbd b122 38bd 5d49 b9bd f617 8cbd
00000120: e605 2bbd 9276 b53d 4953 ce3d 78c3 c63d
00000130: 016e 76bd 65cb 4e3d a537 ffbd 1e1d 0dbd
00000140: 8cef 423e f616 023e 25fa a03d 6a20 5c3d
00000150: d44b 7cbd 3e21 a1bd 76eb 39bd 0bf2 843d
00000160: dff8 ae3d 8381 eb3d 542b abbd cfce 593e
00000170: 31bb a5bd 768b be3d e2ff c53d db7e 77bd
00000180: d4a2 bf3d 7cb8 69bd 3362 813d 3ab4 ddbc
00000190: 96be 9c3d 9c3e a43c 2552 b1bd c8c9 28bd
000001a0: a9fa a23d 0a51 8abd 1541 b43d 14fe 173e
000001b0: 89cb 8dbd c751 893d deb9 293e 1c84 343e
000001c0: 75bd d3bd bcf7 b83d 6745 213e 2bab 4fbd
000001d0: 2a77 8b3d 0e45 c43d bae3 6f3d dae8 95bd
000001e0: e84d 61be fe84 053e 3f8b 9b3d 4fb8 18bd
000001f0: ac92 473e b598 5f3e ab30 e2bc aa81 5e3d
00000200: 5dad de3d a84c bf3d 39f1 f4bc 70ea b1bd
00000210: c70c ce3d 8de5 5abd 0d1e d73d 5666 953d
00000220: 54e0 253e aed2 b9bd 916a 66bc bc32 8fbd
00000230: 6280 ef3d 6453 573d 45b1 c4bd 3719 16bd
00000240: bf04 ebbd 690e 8bbc 5e94 eb3c 8388 0d3e
00000250: 9878 c23d ad08 b1bb 4f60 babd 759d 47bd
00000260: 14cd 3ebd 967f 8ebd 37a8 023e 691f 83bd
00000270: 4f8b 473c ab79 053e 317f 313e 574d 673d
00000280: 48aa 523d 1e12 163e 8fea 87bd e185 a5bd
00000290: 8c6c 883d 67b0 4cbd ffcd 613d 072d 913c
000002a0: e0c5 7bbc 94e0 29bd d85d 88bd 42f5 e7bd
000002b0: 914f 3cbe ac9d 27bd 1a4c 39bd af7d aa3d
000002c0: 39f8 6c3d d992 52bd ba01 98bd b59f 99bd
000002d0: 71c7 a0bd 4112 7fbd 952b 983d 18f0 acba
000002e0: c20b 6dbd 043c 91bd 9232 a2bc 2b5c 373e
000002f0: 9730 9fbd fc83 983d d614 efbc 5228 bdbc
00000300: 892f abbc 02f7 973b 4153 7fbd 7b33 52bd
00000310: b463 9bbd 0aa6 7bbd 0405 81bc fdaa 333e
00000320: 2f1e c6bd 261b 95bd ec02 c8bd e942 df3d
00000330: 18c0 a4bd 22b8 3cbe 3268 5b3d 2a3f a1bc
00000340: c764 8ebd 37dd c53d e58c 0ebe 1361 b03d
00000350: 23ff 413d 0cd3 81bd ecf1 cdbc 4e24 86bd
00000360: 6534 7bbd bc73 ae3d c698 843d 7ff8 d8bc
00000370: 47f2 b0bd 2551 99bd 89a6 86bd 0ec7 90bd
00000380: 0404 c03c fcbb 27be 54c4 ad3d 95cb 963d
00000390: e008 85bd 9a96 ccbd 05d0 2dbe bdbe 213e
000003a0: 15cb de3d e7b6 0ebd 0f7f ba3d fd0d 893d
000003b0: 0468 0dbe b1a2 ad3d f3d5 46bd c40b 8dbd
000003c0: 4db7 15bd 2bb3 e3bc 4edb f9bd bcd8 363d
000003d0: 44e0 c5bd f0c8 0ebe 71d3 ecbd dc58 56bd
000003e0: c85e a4bd 207a 023e 6c4c 30bd 5951 cb3d
000003f0: 4aee cc3c 496f 1bbd 81c6 e23d 2f58 473d
